data/CNN_Model.onnx (onnx, 66042 bytes, 15 tensors)

W0__99 f4 [1, 128, 1]
0.14808345 0.6608921 0.33602148 0.3209293 -0.11693831 -0.099331714 -0.06727737 -0.37000448
-0.24242374 0.7005093 -0.00889437 -0.24317455 -0.09488599 -0.12248784 -0.1623237 0.16265962
-0.30976185 -0.022310425 -0.04018255 -0.04427252 -0.1454051 -0.19828285 -0.23815268 0.0247592
-0.1593384 0.07124762 0.025452986 -0.21813238 -0.072692774 0.027758302 -0.12765388 0.106649056
-0.0165671 -0.032664537 0.7145723 0.15434237 -0.06289515 0.26145223 -0.17095648 -0.0997528
-0.0898264 0.46758607 -0.3367398 0.24422938 -0.38967174 -0.10772765 0.013351005 0.21074693
-0.13199899 -0.14614098 -0.040590357 -0.051947635 -0.19315179 0.16397224 0.05003362 -0.38497946
0.19306697 -0.19357319 0.04733213 0.15554373 -0.07321219 -0.14610808 -0.13757832 -0.16013356
0.2906546 -0.051130094 0.47919515 0.15668538 -0.36739692 -0.08792032 -0.18927778 -0.60870355
0.1413063 0.598332 -0.33421367 0.1558933 0.15119243 -0.10121206 0.017816639 -0.02436596
0.061151206 -0.2171857 -0.28508732 0.2306104 -0.026817746 0.27700055 0.08801914 -0.41386926
0.27383435 -0.16747001 0.5077718 0.04625829 -0.116781615 0.21185891 -0.0699889 0.19583288
-0.15191555 -0.5003302 0.73425 0.5617868 0.07750787 0.1258802 -0.35234392 0.15484928
0.013897041 0.36971408 0.2863478 -0.08443096 0.15000492 -0.19036467 0.03931569 0.07767295
0.018971127 0.08397899 0.27673957 -0.039623257 -0.05008636 0.053404633 -0.030722905 -0.18426812
0.08442932 -0.09839341 -0.20790853 -0.15734054 0.11764696 -0.05715778 -0.10235198 0.2408911
00000000: 30a3 173e 3a30 293f 020b ac3e d850 a43e
00000010: 5a7d efbd 6d6e cbbd b8c8 89bd 3a71 bdbe
00000020: ee3d 78be 9454 333f b1b9 11bc c002 79be
00000030: 9653 c2bd e8da fabd 2f38 26be 3e90 263e
00000040: 1b99 9ebe 5ac4 b6bc 7596 24bd 1a57 35bd
00000050: 13e5 14be a90a 4bbe 4cde 73be ced3 ca3c
00000060: 9b29 23be 46ea 913d c882 d03c 185e 5fbe
00000070: f3df 94bd 6165 e33c b3b7 02be d26a da3d
00000080: bab7 87bc 40cb 05bd 36ee 363f ed0b 1e3e
00000090: 2ccf 80bd 11dd 853e 370f 2fbe 324b ccbd
000000a0: e7f6 b7bd 7167 ef3e 2969 acbe 4417 7a3e
000000b0: 0e83 c7be 50a0 dcbd 2cbe 5a3c 0bce 573e
000000c0: be2a 07be fba5 15be 1342 26bd 0bc7 54bd
000000d0: 95c9 45be 57e8 273e 0ef0 4c3d 071c c5be
000000e0: 59b3 453e 0d38 46be 56df 413d db46 1f3e
000000f0: 46f0 95bd 5b9d 15be 55e1 0cbe 0dfa 23be
00000100: aed0 943e ca6d 51bd 1159 f53e 2272 203e
00000110: 731b bcbe 920f b4bd 09d2 41be ffd3 1bbf
00000120: 99b2 103e 492c 193f 0e1e abbe 7ea2 1f3e
00000130: 30d2 1a3e 4548 cfbd 33f4 913c 1f9b c7bc
00000140: b079 7a3d ee65 5ebe f7f6 91be 2225 6c3e
00000150: e4b0 dbbc 04d3 8d3e 6143 b43d ace6 d3be
00000160: 0434 8c3e 427d 2bbe 55fd 013f 5579 3d3d
00000170: 332b efbd 8bf1 583e 5756 8fbd 6a88 483e
00000180: c08f 1bbe a415 00bf cff7 3b3f 42d1 0f3f
00000190: 72bc 9e3d bde6 003e 6c66 b4be cf90 1e3e
000001a0: 6ab0 633c 2a4b bd3e 2e9c 923e 24ea acbd
000001b0: e49a 193e f5ee 42be 7d09 213d ff12 9f3d
000001c0: 5669 9b3c 2dfd ab3d cfb0 8d3e ff4b 22bd
000001d0: 5b27 4dbd d1be 5a3d 9aae fbbc c8b0 3cbe
000001e0: 48e9 ac3d 7c82 c9bd f9e5 54be e11d 21be
000001f0: e4f0 f03d 471e 6abd ea9d d1bd 28ac 763e

W0__78 f4 [1, 128, 1]
0.488783 0.40206257 0.20360208 0.27096963 0.17341162 -0.13514741 -0.0769418 0.18336616
0.5585373 0.68376946 0.07376626 0.044363126 0.47421318 0.14278412 0.052264087 0.25867042
0.23133034 0.13905859 0.09329021 0.31043616 0.39120695 0.25848022 -0.06670172 0.3597948
0.2019875 0.15647411 -0.04643768 0.007245175 0.007045972 0.21363097 -0.20632954 0.3282447
0.43630016 0.08974594 0.021255495 0.39833233 0.019888029 -0.12224492 0.29124522 0.1920638
0.048266 0.45516148 0.11787443 0.35375524 0.5161553 0.3007033 0.28248355 0.21353205
0.1854673 -0.055778608 0.44062963 0.3621641 -0.054435436 0.2382826 0.2951505 0.55478495
0.49658144 -0.19348215 -0.4968239 0.2136018 0.29395753 0.4014677 0.33866423 0.21452613
0.17509824 0.22972141 0.100258894 0.42797512 -0.06214035 -0.35016093 -0.001425033 0.25330248
0.22100596 0.6145327 -0.1397024 0.44595593 0.39176363 0.11053414 0.1472924 0.049657047
-0.09605699 -0.4634449 0.08488006 0.22962171 0.0977209 0.018446708 0.05180004 0.010830993
0.1031057 -0.23428221 -0.21420738 -0.04357936 0.20049502 -0.47402704 0.19255377 -0.08876123
0.10053456 -0.67138463 0.18334 -0.079894 -0.7051265 -0.1711518 -0.15057784 0.54741603
-0.007994205 0.04334392 -0.7643145 -0.258764 0.5800581 0.83520305 0.14501067 -0.5890268
-0.698569 -0.92740756 -0.17478244 -0.51332337 -0.57216144 0.65667003 -0.056374762 -0.37569532
-0.6254653 0.64440185 -1.0074284 0.15236111 0.040190306 0.54764885 0.13767841 -0.33506367
00000000: c441 fa3e 25db cd3e 107d 503e 88bc 8a3e
00000010: d192 313e 1564 0abe aa93 9dbd 57c4 3b3e
00000020: 4dfc 0e3f 840b 2f3f c412 973d 1cb6 353d
00000030: 12cc f23e 0036 123e de12 563d 7370 843e
00000040: dce1 6c3e 6065 0e3e f00e bf3d 7df1 9e3e
00000050: 474c c83e 8557 843e e99a 88bd 0637 b83e
00000060: d0d5 4e3e c03a 203e 7035 3ebd ef68 ed3b
00000070: e6e1 e63b 14c2 5a3e 0d48 53be b00f a83e
00000080: bc62 df3e b8cc b73d 0120 ae3c 37f2 cb3e
00000090: 38ec a23c 8b5b fabd 181e 953e 5fac 443e
000000a0: 92b2 453d ed0a e93e 2668 f13d 681f b53e
000000b0: c122 043f c8f5 993e afa1 903e 25a8 5a3e
000000c0: 24eb 3d3e 1c78 64bd 359a e13e 936d b93e
000000d0: b1f7 5ebd 5b00 743e f71d 973e 6306 0e3f
000000e0: ec3f fe3e 2f20 46be b45f febe 6eba 5a3e
000000f0: 9a81 963e 2d8d cd3e 6665 ad3e bdac 5b3e
00000100: f44c 333e 173c 6b3e 8954 cd3d 8e1f db3e
00000110: e186 7ebd 4b48 b3be 2cc8 baba ddb0 813e
00000120: 634f 623e 0452 1d3f 250e 0fbe 5654 e43e
00000130: 3e95 c83e b95f e23d d2d3 163e 3065 4b3d
00000140: 87b9 c4bd a648 edbe 99d5 ad3d f421 6b3e
00000150: e521 c83d 8d1d 973c 472c 543d 7a74 313c
00000160: 1529 d33d ade7 6fbe 2e59 5bbe 4580 32bd
00000170: 914e 4d3e acb3 f2be d12c 453e 73c8 b5bd
00000180: 10e5 cd3d dddf 2bbf 7bbd 3b3e 779f a3bd
00000190: 2c83 34bf 6b42 2fbe 1431 1abe 7523 0c3f
000001a0: 20fa 02bc 6589 313d 1daa 43bf b77c 84be
000001b0: b07e 143f decf 553f ad7d 143e 76ca 16bf
000001c0: 6bd5 32bf 956a 6dbf 2bfa 32be 2969 03bf
000001d0: 2c79 12bf 871b 283f 39e9 66bd 235b c0be
000001e0: 7e1e 20bf 85f7 243f 6af3 80bf 8d04 1c3e
000001f0: 979e 243d b732 0c3f 92fb 0c3e 778d abbe

W0__57 f4 [1, 128, 1]
0.2907025 -0.3610993 -0.37648833 0.39655724 0.22494006 -0.5991771 -0.18936622 0.084745295
-0.03941675 0.39252025 -0.1467672 -0.29882085 -0.15154298 -0.113632455 -0.053031217 0.21983947
0.3778747 0.11867355 0.80374926 0.03639736 -0.4114818 0.10908983 -0.13770351 0.33223018
0.49590403 0.19170985 -0.06515726 -0.11941702 0.36747524 0.5563588 0.14199385 0.524478
0.6217371 0.052955873 -0.12977181 0.1997088 0.5278234 -0.43326676 -0.16545306 0.37329248
-0.052463144 0.16818877 0.13815461 -0.6702257 0.49772745 0.05519251 0.68146163 0.013251786
0.045165762 0.36703917 0.35801625 0.407354 -0.15010813 0.54449725 -0.063557886 0.36112425
0.51369035 0.48208347 0.3673904 -0.010214924 0.43535355 0.23573019 -0.34478635 0.14887384
-0.0933254 0.266363 -0.64660704 -0.8356051 0.44810006 -0.12901565 -0.12579009 0.25085256
-0.30446142 -0.37919182 -0.53736633 0.2236805 -0.49331224 -0.077730894 -0.06832519 0.5603317
-0.42259192 -0.20661516 -0.36215606 0.5204443 0.5517049 0.14195654 -0.36857027 -0.07966971
0.67728335 -0.010608353 0.42416596 -0.737652 -0.3163999 -0.50593174 -1.1375365 0.040445372
0.52472305 0.32501745 -0.7956003 -0.4759889 0.6667869 -0.37944365 0.5192924 0.56455284
-0.7341716 -0.545325 0.30346644 -0.061096475 0.44549838 0.40188813 0.44053343 -0.04462409
0.52496296 0.4659706 -0.42234093 -0.4505117 -0.65457296 -0.62281203 0.2044049 0.45285878
0.637945 0.5299238 0.56068397 -0.65589243 -0.46021992 -0.5055123 0.7582937 -0.36991143
00000000: f5d6 943e 02e2 b8be 14c3 c0be 8d09 cb3e
00000010: b056 663e ac63 19bf 38e9 41be f18e ad3d
00000020: 7573 21bd 6af8 c83e 244a 16be 0cff 98be
00000030: 152e 1bbe 22b8 e8bd 4337 59bd 991d 613e
00000040: cb78 c13e 1e0b f33d 83c2 4d3f 6615 153d
00000050: bead d2be 7d6a df3d 2602 0dbe 131a aa3e
00000060: 22e7 fd3e 964f 443e 2b71 85bd e990 f4bd
00000070: b725 bc3e 886d 0e3f d666 113e 3144 063f
00000080: 2a2a 1f3f 42e8 583d e7e2 04be 7780 4c3e
00000090: 6f1f 073f 24d5 ddbe 876c 29be 3120 bf3e
000000a0: 98e3 56bd ad39 2c3e 6778 0d3e e993 2bbf
000000b0: 22d6 fe3e 8b11 623d 4574 2e3f 051e 593c
000000c0: bcff 383d 8fec bb3e e84d b73e b490 d03e
000000d0: f2b5 19be 2c64 0b3f a32a 82bd 47e5 b83e
000000e0: 3681 033f a5d3 f63e 981a bc3e 7f5c 27bc
000000f0: a9e6 de3e 4163 713e d687 b0be 6272 183e
00000100: 6321 bfbd bb60 883e 0a88 25bf 37ea 55bf
00000110: 5f6d e53e ae1c 04be 1ecf 00be bf6f 803e
00000120: 5ee2 9bbe 6e25 c2be d790 09bf 800c 653e
00000130: 6c93 fcbe 6031 9fbd 14ee 8bbd e671 0f3f
00000140: f85d d8be ed92 53be 856c b9be d63b 053f
00000150: 883c 0d3f 0e5d 113e 3eb5 bcbe df29 a3bd
00000160: 7162 2d3f a8ce 2dbc 482c d93e c3d6 3cbf
00000170: 2bff a1be be84 01bf cc9a 91bf 0caa 253d
00000180: 4054 063f b068 a63e 76ac 4bbf d1b4 f3be
00000190: 8cb2 2a3f 7046 c2be 59f0 043f 8986 103f
000001a0: acf2 3bbf 6b9a 0bbf f45f 9b3e 4c40 7abd
000001b0: 5d18 e43e 48c4 cd3e 998d e13e c0c7 36bd
000001c0: f963 063f b393 ee3e 123d d8be 78a9 e6be
000001d0: 1892 27bf 9c70 1fbf 854f 513e 1bdd e73e
000001e0: 5d50 233f 16a9 073f fc88 0f3f 91e8 27bf
000001f0: f2a1 ebbe 4169 01bf 891f 423f 0865 bdbe

StatefulPartitionedCall/model/dense_4/MatMul/ReadVariableOp:0 f4 [16, 1]
-0.061623253 -0.0988723 -0.060075272 -0.06563981 -0.052343052 0.28267375 0.23483537 0.27688277
0.28181204 -0.061330404 0.24897839 -0.06818444 -0.076439135 0.31506872 0.2550361 -0.050974756
00000000: aa68 7cbd 8f7d cabd 7d11 76bd 2a6e 86bd
00000010: ab65 56bd 9dba 903e af78 703e 94c3 8d3e
00000020: ab49 903e 9735 7bbd 31f4 7e3e 49a4 8bbd
00000030: 1f8c 9cbd b050 a13e 1794 823e e8ca 50bd

StatefulPartitionedCall/model/dense_3/MatMul/ReadVariableOp:0 f4 [5, 16]
0.42184308 0.20669214 0.434414 0.31757542 0.11199927 -1.2521397 -0.7641651 -0.92837036
-0.94714516 0.29226938 -1.0662339 0.39064816 0.17495379 -0.99716055 -1.5229506 0.1308233
0.7337069 1.6342078 0.35538644 0.83489937 0.47662735 -0.8937203 -1.8921647 -1.0168704
-1.7095535 0.92299455 -1.2107133 0.57040316 1.0949006 -1.4215082 -1.1426734 0.8621076
-0.15724573 0.047110748 0.28334802 -0.3655809 -0.04544364 -1.0596614 -0.906837 -1.1091064
-0.97202545 0.19087708 -0.7478572 -0.02744925 -0.061529465 -1.0795981 -0.98226887 0.09038385
-0.4595 -0.3045493 -0.45223293 -0.31060445 -0.42407885 0.40953273 0.35006827 0.43053797
0.39274314 -0.26706368 0.3330107 -0.61885333 -0.43348727 0.37757888 0.5754805 -0.04080386
0.4776331 0.6549524 0.88463867 0.6300602 0.69048876 -0.42039004 -0.5352464 -0.44652018
-0.52353305 0.6046877 -0.47132054 0.81920624 0.7888785 -0.39021695 -0.6999986 0.5768768
00000000: d1fb d73e 1ba7 533e 836b de3e 3f99 a23e
00000010: e05f e53d 1d46 a0bf 53a0 43bf aea9 6dbf
00000020: 1b78 72bf 55a4 953e 5a7a 88bf 0903 c83e
00000030: 1627 333e ea45 7fbf 0cf0 c2bf 8bf6 053e
00000040: 37d4 3b3f b92d d13f 36f5 b53e f7bb 553f
00000050: 8008 f43e dbca 64bf 7432 f2bf cf28 82bf
00000060: a6d2 dabf 5f49 6c3f a7f8 9abf f105 123f
00000070: b425 8c3f fbf3 b5bf 1f43 92bf 15b3 5c3f
00000080: 0605 21be 33f7 403d fe12 913e 6b2d bbbe
00000090: 1c23 3abd fca2 87bf 7826 68bf 33f7 8dbf
000000a0: a9d6 78bf 4875 433e 9273 3fbf 40dd e0bc
000000b0: 5206 7cbd 4530 8abf f975 7bbf 2b1b b93d
000000c0: 9643 ebbe e3ed 9bbe 138b e7be 8c07 9fbe
000000d0: dd20 d9be 46ae d13e 263c b33e 796f dc3e
000000e0: a115 c93e 92bc 88be 6180 aa3e 2c6d 1ebf
000000f0: 0bf2 ddbe 0552 c13e b152 133f f321 27bd
00000100: 538c f43e f6aa 273f ae77 623f a04b 213f
00000110: dfc3 303f 5d3d d7be e805 09bf 4b9e e4be
00000120: 4306 06bf d0cc 1a3f ed50 f1be 80b7 513f
00000130: f1f3 493f 84ca c7be 1c33 33bf 33ae 133f

StatefulPartitionedCall/model/dense_3/BiasAdd/ReadVariableOp:0 f4 [16]
-0.5996482 -1.2417582 -0.6221525 -0.49556974 -0.34818125 -0.47373503 -0.23907782 -0.4946318
-0.34952974 -0.67881876 -0.4077193 -0.6299286 -0.7190421 -0.49824882 -0.40302977 -0.36959583
00000000: 8b82 19bf eff1 9ebf 6345 1fbf 51bb fdbe
00000010: d044 b2be 668d f2be d1d0 74be 6140 fdbe
00000020: 90f5 b2be 11c7 2dbf 96c0 d0be 0043 21bf
00000030: 2513 38bf 781a ffbe eb59 cebe aa3b bdbe

StatefulPartitionedCall/model/dense_2/MatMul/ReadVariableOp:0 f4 [32, 1]
-0.50415206 0.5166826 -0.38953018 -0.08152621 0.44468012 0.050209787 0.49617797 -0.7772746
-0.20622742 0.100002676 0.6630967 0.7015633 -0.4736959 -1.0082642 -0.29022288 0.69855493
0.29465115 0.8516985 -0.31552413 0.5379355 0.4935887 -0.7478194 0.44081968 0.46685994
0.20587498 -0.48416615 1.1141664 0.28701434 0.30675608 -0.18495336 0.08965483 0.50064707
00000000: 1c10 01bf 5045 043f 8070 c7be 37f7 a6bd
00000010: 1dad e33e c7a8 4d3d 0a0b fe3e 78fb 46bf
00000020: 482d 53be 34ce cc3d b5c0 293f a799 333f
00000030: 4588 f2be cd0e 81bf 1898 94be 7fd4 323f
00000040: 84dc 963e ea08 5a3f 618c a1be 24b6 093f
00000050: a8b7 fc3e 1871 3fbf 1eb3 e13e 4408 ef3e
00000060: e4d0 523e a0e4 f7be 019d 8e3f 8bf3 923e
00000070: 220f 9d3e 6a64 3dbe f49c b73d 682a 003f

StatefulPartitionedCall/model/dense_1/MatMul/ReadVariableOp:0 f4 [32, 1]
-0.32827738 0.1899869 -0.6733977 -0.3463385 -0.45165828 0.2429302 0.16996989 -0.019352093
-0.56704366 -0.6989803 -0.44524458 -0.12633654 0.60237473 -0.38612255 0.29028565 -0.11524089
-0.23060893 -0.18287304 -0.1172207 -0.46552852 0.6438765 0.5351429 -0.49914688 0.44352105
0.5268655 0.5984632 0.35091943 0.50304145 0.06454824 -0.3906781 -0.21401079 -0.6103312
00000000: f913 a8be ed8b 423e cb63 2cbf 4853 b1be
00000010: c13f e7be b2c2 783e 960c 2e3e 4888 9ebc
00000020: c629 11bf 5ff0 32bf 19f7 e3be 5e5e 01be
00000030: 3b35 1a3f dbb1 c5be 52a0 943e 6a03 ecbd
00000040: bf24 6cbe 1243 3bbe 6811 f0bd c159 eebe
00000050: 17d5 243f 20ff 083f 2e90 ffbe 3115 e33e
00000060: a8e0 063f e234 193f b6ab b33e 53c7 003f
00000070: de31 843d f606 c8be a525 5bbe aa3e 1cbf

StatefulPartitionedCall/model/dense/MatMul/ReadVariableOp:0 f4 [32, 1]
0.6076662 -0.48803446 -0.49009728 -0.9006226 0.7210375 0.6873047 0.027596552 0.49324125
-0.59204656 -0.8222744 -0.00041220692 0.5430471 0.29109043 0.06010402 0.6022329 0.4883317
0.8827342 0.68670267 -0.8737005 -0.5288124 0.56590563 -0.59142524 0.19339982 0.16327463
0.067243345 0.72268844 0.88501686 -0.5067051 -0.90627885 -1.0684705 0.7621211 -0.74977106
00000000: 0390 1b3f a7df f9be 08ee fabe 348f 66bf
00000010: ea95 383f 33f3 2f3f 2a12 e23c 1e8a fc3e
00000020: 5d90 17bf 9380 52bf 7a1d d8b9 2205 0b3f
00000030: ce09 953e a22f 763d ef2b 1a3f 9d06 fa3e
00000040: defa 613f bfcb 2f3f d6aa 5fbf 4060 07bf
00000050: 31df 103f a567 17bf 9a0a 463e 7731 273e
00000060: e1b6 893d 1c02 393f 7790 623f 6db7 01bf
00000070: e401 68bf a4c3 88bf 5e1a 433f fff0 3fbf

R0__79 f4 [1, 128, 32]
0.3199828 0.09917113 0.051831525 -0.3523098 0.010126444 0.08192116 -0.08028747 0.0403349
0.056234363 0.07548058 -0.2176764 -0.21127833 -0.022491159 0.03609207 0.21249463 0.055048343
0.042303827 -0.08080893 0.2216784 -0.18983455 -0.04315108 0.13370398 -0.23140068 -0.1499323
0.0183984 0.08039712 -0.2525224 -0.009973356 -0.19187929 -0.032624435 0.0048072604 -0.15912539
0.11181466 -0.087062545 0.2864094 -0.029534882 -0.016956756 0.12032226 -0.40357703 0.04646464
0.12336825 -0.04713866 -0.05866085 -0.11650753 0.015457803 -0.124008395 0.08103738 -0.09414557
0.14169954 0.06948964 0.011388182 0.04396159 0.09256136 0.17214537 0.0055354154 -0.16540934
0.20406 -0.07569363 0.17963639 -0.08761763 -0.34536272 -0.0679685 -0.08200917 -0.038141776
0.36192754 -0.2040897 0.2789907 -0.3217611 -0.39808616 0.0764529 -0.36249536 0.24306165
0.1281619 0.094206914 -0.18524216 -0.12351289 0.29426578 0.24391647 0.29939687 -0.22184022
-0.2996587 -0.13115925 0.1092794 -0.25341696 -0.36594126 0.1788987 -0.17219658 -0.1437323
-0.2402671 0.15624781 -0.17687681 -0.095772766 -0.15437296 0.3936831 -0.2982455 -0.49209902
0.13834195 -0.1522025 -0.08914006 -0.4962724 -0.19459029 0.20752925 -0.005561103 -0.048728287
-0.097192764 0.059144463 -0.2440642 -0.04055195 -0.13361591 -0.18535158 0.30742636 0.09150899
0.21373005 0.14891453 -0.0016743272 0.041811388 -0.2070916 -0.11960194 -0.20654488 -0.49095923
0.123964705 0.14229742 -0.32666683 -0.27379364 -0.045007855 0.13743569 0.03544502 -0.23526809
0.16269898 -0.022112863 -0.017299747 0.001849807 -0.038744323 0.20839337 -0.24086541 -0.16369042
-0.019518966 0.12424504 -0.08495401 0.13313855 0.19026835 0.09958327 0.09187051 -0.111203484
0.11899816 -0.12626214 -0.17165673 0.14922747 0.045024484 0.044503447 -0.0689988 0.0075314795
-0.008291391 -0.20006837 0.096926935 -0.15363577 -0.03444445 0.18213911 0.08607275 -0.28579074
-0.22321303 0.03300268 -0.35360506 -0.11707674 -0.2613239 0.28547585 0.31893232 0.2541784
-0.3936248 -0.34890574 0.044759613 -0.14635746 0.16384971 0.15255778 0.24008605 -0.22266485
-0.009695765 -0.2630223 0.07344802 -0.022783862 0.042187005 0.117886856 -0.16363035 0.09331727
0.38066036 0.4012638 -0.20751 0.087699175 0.2598465 0.38767096 -0.53165907 0.2499308
0.3853507 -0.42850035 0.10010032 -0.23843443 -0.09031118 0.00019444618 -0.1341746 0.22318774
-0.033892844 -0.18349098 -0.24554768 0.039464954 0.29341167 -0.0021153747 0.40305996 -0.30481967
-0.24232341 -0.08042235 0.19272432 -0.23695433 -0.37827632 0.13690141 -0.28196752 -0.3820951
-0.13480768 0.3990957 0.106318116 0.13126646 -0.32037657 0.32769114 -0.13389207 -0.20781441
-0.023658983 0.45773458 0.15197098 -0.051713955 0.29741266 0.1851471 -0.072111934 0.030905535
0.11315512 -0.27601397 0.118503936 -0.27383128 0.07936743 -0.09578003 0.0032182266 -0.049879145
0.40494767 0.021534527 -0.02996072 0.03300817 0.25186163 -0.011347655 0.19039722 -0.0875969
0.10417005 -0.5086467 0.123252094 0.29226083 -0.23363109 -0.43195516 -0.093933135 -0.14380248
00000000: c9d4 a33e 3c1a cb3d 4b4d 543d f361 b4be
00000010: 62e9 253c 48c6 a73d c26d a4bd 3536 253d
00000020: 0156 663d 9095 9a3d 90e6 5ebe 5959 58be
00000030: 613f b8bc 47d5 133d 3198 593e 5f7a 613d
00000040: c746 2d3d 277f a5bd aaff 623e fd63 42be
00000050: 30bf 30bd b2e9 083e 4df4 6cbe da87 19be
00000060: 3eb8 963c 3fa7 a43d 9e4a 81be 4967 23bc
00000070: 017c 44be 33a1 05bd 3986 9d3b c4f1 22be
00000080: 16ff e43d d94d b2bd 41a4 923e 23f3 f1bc
00000090: e5e8 8abc 846b f63d a6a1 cebe b551 3e3d
000000a0: 7ea8 fc3d 7814 41bd 5c46 70bd 809b eebd
000000b0: ba42 7d3c 1df8 fdbd edf6 a53d 65cf c0bd
000000c0: af19 113e 9650 8e3d 7f95 3a3c 1111 343d
000000d0: cf90 bd3d e046 303e 6e62 b53b 1161 29be
000000e0: 1bf5 503e 4305 9bbd 9af2 373e df70 b3bd
000000f0: 62d3 b0be 1233 8bbd 6cf4 a7bd 8d3a 1cbd
00000100: 914e b93e e4fc 50be ded7 8e3e dfbd a4be
00000110: f3d1 cbbe 5793 9c3d fe98 b9be 27e5 783e
00000120: e03c 033e 8eef c03d 1fb0 3dbe 53f4 fcbd
00000130: 01aa 963e 3dc5 793e 8c4a 993e 152a 63be
00000140: dd6c 99be 9c4e 06be e1cd df3d debf 81be
00000150: a75c bbbe 3931 373e 4d54 30be 8f2e 13be
00000160: 9408 76be 6dff 1f3e 321f 35be 8324 c4bd
00000170: f213 1ebe d590 c93e a2b3 98be 67f4 fbbe
00000180: 83a9 0d3e f9da 1bbe 108f b6bd 6a17 febe
00000190: ad42 47be 8c82 543e ea39 b6bb 5097 47bd
000001a0: 000d c7bd 7741 723d f7eb 79be cd19 26bd
000001b0: 9cd2 08be cecc 3dbe fd66 9d3e 1169 bb3d
000001c0: 0ddc 5a3e 0d7d 183e 1975 dbba 6b42 2b3d
000001d0: d20f 54be ddf1 f4bd 8080 53be 025f fbbe
000001e0: 35e1 fd3d 6ab6 113e e040 a7be ae2e 8cbe
000001f0: 285a 38bd f1bb 0c3e cc2e 113d 1eea 70be
00000200: 909a 263e 0926 b5bc 33b8 8dbc 3975 f23a
00000210: 5eb2 1ebd 1265 553e 6ca5 76be 769e 27be
00000220: 3de6 9fbc 2f74 fe3d 5efc adbd 7955 083e
00000230: b5d5 423e 50f2 cb3d 9b26 bc3d a7be e3bd
00000240: 4fb5 f33d dd4a 01be c8c6 2fbe 16cf 183e
00000250: 986b 383d 3f49 363d 3e4f 8dbd a1ca f63b
00000260: 9dd8 07bc b9de 4cbe a181 c63d b252 1dbe
00000270: a015 0dbd ad82 3a3e e946 b03d 2a53 92be
00000280: f591 64be d12d 073d b90b b5be eec5 efbd
00000290: 3fcc 85be e429 923e 194b a33e ac23 823e
000002a0: 3189 c9be c6a3 b2be db55 373d bbde 15be
000002b0: 38c8 273e 1b38 1c3e 1ed9 753e 4102 64be
000002c0: fcda 1ebc dcaa 86be ea6b 963d 39a5 babc
000002d0: 48cc 2c3d aa6e f13d b78e 27be 201d bf3d
000002e0: eae5 c23e 7372 cd3e 807d 54be a09b b33d
000002f0: 9a0a 853e cf7c c63e cf1a 08bf dced 7f3e
00000300: b04c c53e 6664 dbbe 6601 cd3d 2828 74be
00000310: 11f5 b8bd 40e4 4b39 1165 09be 548b 643e
00000320: 39d3 0abd 0fe5 3bbe da70 7bbe 01a6 213d
00000330: 0e3a 963e 19a2 0abb e05d ce3e 5311 9cbe
00000340: a123 78be 79b4 a4bd 8659 453e 28a4 72be
00000350: 6fad c1be e22f 0c3e 0c5e 90be f8a1 c3be
00000360: 060b 0abe 4656 cc3e 50bd d93d b76a 063e
00000370: 6608 a4be 22c7 a73e 011b 09be 4dcd 54be
00000380: 7cd0 c1bc 305c ea3e 489e 1b3e 03d2 53bd
00000390: 7946 983e 3497 3d3e 6caf 93bd 9b2d fd3c
000003a0: dfbd e73d b451 8dbe 31b2 f23d 9d33 8cbe
000003b0: 648b a23d 5228 c4bd e2e8 523b 134e 4cbd
000003c0: 4d55 cf3e 2d69 b03c 2f70 f5bc 9333 073d
000003d0: 02f4 803e 84eb 39bc 7df7 423e 0166 b3bd
000003e0: 1b57 d53d ac36 02bf 986b fc3d 36a3 953e
000003f0: fd3c 6fbe 3a29 ddbe 0460 c0bd f540 13be

R0__58 f4 [1, 128, 32]
-0.11376334 0.14931364 0.3815978 0.070587546 -0.32665032 0.048045732 -0.15379524 -0.101310946
-0.016741544 0.03827192 0.31981096 0.098667584 -0.121073596 -0.029568387 0.013819743 -0.27979186
-0.101025485 -0.11768399 0.29199493 0.23690519 -0.4023333 0.28427497 -0.214561 0.13732548
0.0013394265 -0.08044385 -0.16342206 0.01787273 0.18946454 0.06096518 -0.38888583 0.014381244
-0.22978356 -0.090283275 0.5324808 -0.10197359 -0.25708377 -0.0127214175 -0.38525456 -0.3436529
0.07750861 0.11482095 -0.34239283 -0.26400337 -0.31874165 -0.37060687 -0.42545122 -0.24977162
-0.16428214 -0.09350621 -0.16611032 0.22309402 0.42302582 0.36487493 -0.109141625 -0.23985729
-0.14095889 -0.11848653 -0.56670225 0.4499882 0.11989268 0.039713874 0.0106353145 0.20482989
-0.03582625 -0.5721953 0.3882586 0.056830365 -0.17084934 0.43868592 -0.31284153 0.15731525
0.548501 0.2755204 0.08417661 0.35943127 -0.27049866 0.06893459 0.038770538 -0.33596337
-0.33011073 -0.31528354 0.17541037 0.5839516 0.16365404 0.10837574 -0.033879947 -0.08355375
0.07645718 -0.22822765 -0.20296864 0.35808992 0.29935277 0.37143424 -0.33794728 0.33587113
-0.16172318 -0.11376075 0.54594785 0.58644515 -0.4332787 0.1333412 -0.3590876 -0.24802592
0.777711 0.2883792 -0.028874531 -0.09776063 -0.29886836 -0.008699108 -0.287017 -0.25081477
-0.21741048 -0.29121128 0.3872253 0.21759765 -0.035817485 0.53201395 -0.20721644 -0.19390665
0.21359736 -0.18092933 -0.5061938 0.80411583 0.12482915 0.20109816 -0.48252404 0.31711188
-0.3309931 -0.21064293 0.5216605 0.17397712 -0.5822808 0.34754863 -0.5242724 -0.2259
0.23673347 0.46028003 -0.16591051 0.00839475 -0.46586406 -0.33192384 -0.2775902 -0.40675786
-0.6240957 -0.16290171 0.08275565 0.5429367 0.23918736 0.5351965 -0.2368736 -0.057455093
-0.3602829 -0.34892505 -0.6082572 0.4738223 0.17449097 0.17376967 -0.33140877 0.39737198
-0.5823629 -0.06445937 0.18414727 -0.06482067 -0.0048211063 -0.06074811 -0.29666582 -0.19695313
0.2868719 0.29239014 -0.6319683 -0.23780069 -0.23869088 -0.38917154 -0.0677589 -0.30127585
-0.050600555 -0.42371184 -0.35439342 0.38994348 0.18772696 0.1414212 0.20679809 -0.01239879
0.17150569 -0.3629844 -0.16592355 0.36406797 0.23658922 0.16270253 0.26835406 0.27241176
-0.012751468 0.25515965 0.001998961 -0.0255678 -0.021991888 -0.03497901 -0.05731555 0.07444912
-0.3788617 -0.11380126 0.4198107 0.004945069 0.09677481 0.15781634 0.12878914 -0.15995294
-0.10758347 0.024824966 0.29068813 0.040067047 -0.121746816 -0.031365193 -0.2633116 0.17122269
-0.020149916 -0.09243833 -0.017936047 -0.063325316 -0.13494541 0.09082956 -0.3808461 -0.039454456
-0.22253293 -0.31369054 0.2474896 0.08947589 0.21183172 0.54037505 -0.5090402 0.30882826
0.060933676 0.23894082 -0.075163655 0.122122884 -0.29129753 -0.13957542 -0.10120378 -0.18242861
-0.057079792 -0.021147296 -0.12774801 0.14593893 -0.082642704 0.25570664 -0.31014177 0.0821857
-0.34038156 -0.15942833 0.13648996 0.1698313 -0.019765668 -0.0005387107 -0.1792258 0.17985833
00000000: c1fc e8bd ade5 183e c960 c33e 3490 903d
00000010: b63e a7be 9acb 443d 807c 1dbe 1d7c cfbd
00000020: 9025 89bc 04c3 1c3d 43be a33e 3b12 ca3d
00000030: 6ff5 f7bd 6739 f2bc 346c 623c e140 8fbe
00000040: 73e6 cebd 4e04 f1bd 5c80 953e 4697 723e
00000050: a1fe cdbe 7d8c 913e e1b5 5bbe 0d9f 0c3e
00000060: b28f af3a bfbf a4bd 1d58 27be d569 923c
00000070: fe02 423e a0b6 793d 0b1c c7be 4f9f 6b3c
00000080: 624c 6bbe 70e6 b8bd a950 083f 88d7 d0bd
00000090: 7ca0 83be 7e6d 50bc 1640 c5be 46f3 afbe
000000a0: d6bc 9e3d 3f27 eb3d 1d4e afbe 732b 87be
000000b0: 1b32 a3be 2fc0 bdbe bed4 d9be 22c4 7fbe
000000c0: 9439 28be 2f80 bfbd d318 2abe c272 643e
000000d0: d796 d83e e3d0 ba3e a585 dfbd 269d 75be
000000e0: 8757 10be 11a9 f2bd 6613 11bf da64 e63e
000000f0: 4b8a f53d 04ab 223d be3f 2e3c edbe 513e
00000100: 8cbe 12bd 647b 12bf d5c9 c63e f5c6 683d
00000110: 21f3 2ebe 719b e03e c42c a0be 4017 213e
00000120: 906a 0c3f 0311 8d3e c964 ac3d 6007 b83e
00000130: cd7e 8abe 942d 8d3d dbcd 1e3d 6403 acbe
00000140: 4604 a9be d86c a1be c79e 333e da7d 153f
00000150: ed94 273e 1af4 dd3d b3c5 0abd 3a1e abbd
00000160: 9595 9c3d 82b4 69be 03d7 4fbe 9057 b73e
00000170: c444 993e a12c be3e 6d07 adbe 4df7 ab3e
00000180: c39a 25be 65fb e8bd 3dc3 0b3f 4521 163f
00000190: b5d6 ddbe 988a 083e 54da b7be 82fa 7dbe
000001a0: 1118 473f 70a6 933e 488a ecbc ba36 c8bd
000001b0: 4605 99be b486 0ebc e4f3 92be cb6a 80be
000001c0: daa0 5ebe a519 95be 6542 c63e ebd1 5e3e
000001d0: 5bb5 12bd 1132 083f 8c30 54be 778f 46be
000001e0: 44b9 5a3e 8a45 39be eb95 01bf 89da 4d3f
000001f0: 6da6 ff3d adec 4d3e 640d f7be 7d5c a23e
00000200: ed77 a9be c8b2 57be 8b8b 053f 0f27 323e
00000210: 5b10 15bf e5f1 b13e b736 06bf 5452 67be
00000220: 426a 723e d3a9 eb3e 72e4 29be 228a 093c
00000230: bc85 eebe ecf1 a9be 4d20 8ebe 9142 d0be
00000240: bcc4 1fbf b5cf 26be cb7b a93d e6fd 0a3f
00000250: 88ed 743e a302 093f fe8e 72be 0856 6bbd
00000260: 0077 b8be 4ea6 b2be beb6 1bbf d698 f23e
00000270: c3ad 323e adf0 313e 69ae a9be 5774 cb3e
00000280: bc15 15bf 4603 84bd 1a91 3c3e b3c0 84bd
00000290: 5ffa 9dbb 03d3 78bd 95e4 97be 15ae 49be
000002a0: e0e0 923e 29b4 953e adc8 21bf 0682 73be
000002b0: 626b 74be 7e41 c7be 2ec5 8abd d440 9abe
000002c0: 8742 4fbd c2f0 d8be 0e73 b5be aca6 c73e
000002d0: 7f3b 403e b8d0 103e e1c2 533e 4b24 4bbc
000002e0: 309f 2f3e 17d9 b9be dde7 29be 1e67 ba3e
000002f0: 7244 723e 7e9b 263e b465 893e 8e79 8b3e
00000300: 89eb 50bc 49a4 823e 0001 033b 9073 d1bc
00000310: 5528 b4bc 2646 0fbd b6c3 6abd c878 983d
00000320: 29fa c1be a310 e9bd 6ef1 d63e 3f0a a23b
00000330: df31 c63d 9b9a 213e 4de1 033e b4ca 23be
00000340: b954 dcbd ba5d cb3c 13d5 943e 581d 243d
00000350: 6556 f9bd ca78 00bd c7d0 86be 0055 2f3e
00000360: 7011 a5bc 4f50 bdbd 9eee 92bc b4b0 81bd
00000370: 212f 0abe d904 ba3d 43fe c2be ff9a 21bd
00000380: acdf 63be 0c9c a0be ea6d 7d3e 233f b73d
00000390: 6aea 583e 0556 0a3f 7550 02bf bd1e 9e3e
000003a0: 9795 793d e7ac 743e 67ef 99bd 901b fa3d
000003b0: f324 95be dcec 0ebe ed43 cfbd 91ce 3abe
000003c0: 80cc 69bd 183d adbc 60d0 02be 0471 153e
000003d0: 9440 a9bd fbeb 823e e7ca 9ebe fa50 a83d
000003e0: 7e46 aebe 2e41 23be 06c4 0b3e 42e8 2d3e
000003f0: 9ceb a1bc 4338 0dba f886 37be c82c 383e

R0__100 f4 [1, 128, 32]
-0.2054402 0.40659454 -0.260673 -0.32503965 -0.12174385 -0.04665033 0.20063682 -0.12798603
0.117460005 -0.0810256 -0.19437414 -0.0067293667 0.017330075 -0.0007354585 -0.034379963 0.073495336
0.23955499 -0.19206719 0.09889375 -0.07556206 -0.24691738 0.24492098 0.18807536 0.19451867
0.21693319 0.032887578 -0.017333206 0.49375585 -0.107038565 0.09373804 0.023927255 0.11753551
0.20014906 0.005933561 0.60295755 0.2803784 0.78830904 -0.13272218 -0.36533156 -0.45363706
0.2527427 0.3000438 -0.09660466 0.12963276 -0.3729176 -0.006633291 -0.22410074 0.32899857
0.074786656 0.20264007 0.30917978 0.008447162 -0.24138543 -0.15685007 0.4434438 0.04594384
-0.17064804 -0.3845906 -0.6004301 0.13892967 0.19779287 0.221754 0.07846515 0.69026095
0.26860425 0.17018293 0.6484725 0.38923925 -0.380997 -0.3559338 0.23608367 -0.2638713
0.27663466 -0.048966188 -0.18665305 0.38199934 -0.36644936 0.33800155 -0.41180894 0.42109203
0.18582603 -0.3888948 -0.2652027 0.20531763 -0.32798663 -0.3330742 0.37554717 0.4518536
-0.24048153 -0.4008621 0.23358148 0.024149172 -0.26745635 0.4263532 0.38676104 -0.015440958
0.26406777 0.21162385 0.60960567 0.2526766 0.43376866 -0.51269364 0.2189432 -0.9782259
0.4826976 0.48319066 -0.4374161 0.88787913 -0.80727017 0.5525689 -0.68605345 0.5372466
0.6318446 -0.17131458 -0.31580687 0.39886346 -0.70364547 -0.45044166 0.594546 0.28045908
-0.2507737 -0.556581 -0.5286315 -0.16176294 -0.23076564 0.6021735 0.5315653 0.5687544
-0.4689654 0.12066093 0.024254363 -0.10837686 -0.18717825 0.41307583 -0.35513708 0.36901557
-0.0288165 -0.15095557 -0.1386346 -0.23725332 0.25561148 -0.22781092 0.13043205 -0.21963035
-0.21097033 0.04816097 0.13470788 -0.263288 0.038496573 0.3007909 -0.016188925 0.05876824
0.41322362 0.07228643 0.19328417 0.23385607 0.5533718 -0.13562986 -0.31209594 0.1936482
-0.111114725 0.49371055 -0.17196687 -0.32962754 -0.06717829 0.042628367 0.16215174 -0.17170787
-0.043419216 -0.1856109 -0.6036771 -0.065463156 0.042698633 -0.001429201 0.056195855 0.08974533
0.011339367 -0.29135305 -0.17905663 -0.10181198 0.06352734 0.17207807 -0.046577655 0.3089036
0.17051442 0.045919146 0.29847878 0.65300685 -0.057204995 0.0501826 -0.005138801 -0.15649511
0.044578113 0.30513602 -0.12341901 -0.08876962 -0.004666523 0.0018725414 -0.119556285 -0.21837835
0.11602706 -0.16174516 -0.25182563 0.116232194 -0.12420848 -0.01309138 0.100297585 -0.07595455
-0.049387258 -0.4552242 0.403884 -0.080001324 -0.00034981268 0.0012451101 0.0930923 0.048943788
0.09521015 0.029333767 0.09674669 0.13035904 0.08437567 0.01820468 0.012981709 -0.033708803
0.055950053 0.39357293 -0.26911438 -0.13874115 -0.015366037 0.09155898 0.123881124 0.11036588
0.10801272 -0.36509928 -0.1840244 -0.23056446 -0.13146156 -0.009434728 0.019130593 -0.10970497
-0.012859922 0.055880927 0.106466666 -0.1524489 -0.063077405 0.19512631 0.009408359 0.046464056
0.17709233 0.0014499023 0.20940219 0.1885577 0.35193586 -0.21222565 0.00086535723 -0.062743105
00000000: ea5e 52be 292d d03e ee76 85be 996b a6be
00000010: d754 f9bd 6b14 3fbd bd73 4d3e c50e 03be
00000020: df8e f03d c0f0 a5bd 040a 47be 0582 dcbb
00000030: cdf7 8d3c c9cb 40ba 01d2 0cbd b984 963d
00000040: e74d 753e 43ad 44be ce88 ca3d 48c0 9abd
00000050: e9d7 7cbe 91cc 7a3e d496 403e e72f 473e
00000060: bc23 5e3e 20b5 063d 5efe 8dbc 91cd fc3e
00000070: 0937 dbbd bbf9 bf3d 1703 c43c 75b6 f03d
00000080: e0f3 4c3e 516e c23b 6d5b 1a3f c28d 8f3e
00000090: 9fce 493f 53e8 07be bd0c bbbe 1e43 e8be
000000a0: 7e67 813e 579f 993e aad8 c5bd 73be 043e
000000b0: 0eef bebe 145c d9bb aa7a 65be 8072 a83e
000000c0: bf29 993d e180 4f3e d04c 9e3e f765 0a3c
000000d0: be2d 77be 4e9d 20be 110b e33e 9c2f 3c3d
000000e0: 5cbe 2ebe 0fe9 c4be c9b5 19bf 9443 0e3e
000000f0: 378a 4a3e 7b13 633e 56b2 a03d f1b4 303f
00000100: 7f86 893e 6f44 2e3e 4b02 263f 5e4a c73e
00000110: 0a12 c3be f43c b6be ebbf 713e 241a 87be
00000120: 0fa3 8d3e c590 48bd fa21 3fbe 6b95 c33e
00000130: 409f bbbe 8a0e ad3e 9fd8 d2be 6099 d73e
00000140: 2e49 3e3e 381d c7be a6c8 87be c93e 523e
00000150: dded a7be b488 aabe b847 c03e 5b59 e73e
00000160: ca40 76be cc3d cdbe fc2f 6f3e 7cd4 c53c
00000170: 0af0 88be f74a da3e 8b05 c63e 12fc 7cbc
00000180: e433 873e ecb3 583e 1e0f 1c3f d45e 813e
00000190: ed16 de3e e43f 03bf a532 603e 036d 7abf
000001a0: 2424 f73e c464 f73e 01f5 dfbe 0c4c 633f
000001b0: 42a9 4ebf 2875 0d3f 33a1 2fbf fe88 093f
000001c0: 91c0 213f 176d 2fbe 70b1 a1be d537 cc3e
000001d0: 1c22 34bf 4aa0 e6be 2b34 183f 5598 8f3e
000001e0: 6965 80be 187c 0ebf 6554 07bf 2fa5 25be
000001f0: d44d 6cbe 0b28 1a3f aa14 083f e399 113f
00000200: 3c1c f0be 141d f73d 16b1 c63c b0f4 ddbd
00000210: a8ab 3fbe ad7e d33e 87d4 b5be 9cef bc3e
00000220: 9510 ecbc 1994 1abe 3bf6 0dbe 89f2 72be
00000230: 82df 823e 4447 69be fb8f 053e c7e6 60be
00000240: 9b08 58be 7044 453d ddf0 093e afcd 86be
00000250: 95ae 1d3d 4401 9a3e a39e 84bc f7b6 703d
00000260: 0c92 d33e e80a 943d 49ec 453e f777 6f3e
00000270: c6a9 0d3f 8ee2 0abe 0acb 9fbe b74b 463e
00000280: 1e90 e3bd a1c7 fc3e 1518 30be f1c4 a8be
00000290: c594 89bd 159b 2e3d 1b0b 263e 30d4 2fbe
000002a0: 59d8 31bd c910 3ebe 958a 1abf 8c11 86bd
000002b0: c3e4 2e3d 0754 bbba a02d 663d 66cc b73d
000002c0: c1c8 393c 3a2c 95be 9f5a 37be cd82 d0bd
000002d0: 9f1a 823d 3c35 303e 36c8 3ebd 9d28 9e3e
000002e0: 559b 2e3e b715 3c3d 36d2 983e 752b 273f
000002f0: c94f 6abd 458c 4d3d 6363 a8bb 4140 20be
00000300: 8a97 363d ca3a 9c3e 1bc3 fcbd d9cc b5bd
00000310: a2e9 98bb 1070 f53a edd9 f4bd 939e 5fbe
00000320: 989f ed3d 86a0 25be 4aef 80be 250b ee3d
00000330: 0461 febd 3a7d 56bc d268 cd3d 0f8e 9bbd
00000340: 4b4a 4abd 2513 e9be e2c9 ce3e bcd7 a3bd
00000350: 1067 b7b9 f632 a33a 2da7 be3d 4879 483d
00000360: 8afd c23d 5e4d f03c 2123 c63d d77c 053e
00000370: 27cd ac3d fb21 953c 3cb1 543c 3e12 0abd
00000380: e22b 653d 6482 c93e 5cc9 89be 2912 0ebe
00000390: d5c1 7bbc 4683 bb3d 63b5 fd3d 8207 e23d
000003a0: c635 dd3d 4bee babe e470 3cbe 1719 6cbe
000003b0: dc9d 06be 1e94 1abc c3b7 9c3c 00ad e0bd
000003c0: 6cb2 52bc 66e3 643d 320b da3d 901b 1cbe
000003d0: ba2e 81bd 31cf 473e 8525 1a3c 1851 3e3d
000003e0: b157 353e a60a be3a 876d 563e 4515 413e
000003f0: f030 b43e ae51 59be 24d9 623a 757f 80bd

B0__80 f4 [1, 256]
-0.074661866 0.06434602 -0.04053802 -0.35936558 0.028652932 -0.54567206 -0.21458219 -0.05205154
0.03741964 0.061016805 -0.10137038 -0.102583 -0.2570959 0.022649456 -0.08842753 0.13261513
9.91797e-05 0.060692195 -0.28145576 -0.14601572 0.020067241 -0.03119081 -0.11341155 -0.04377509
0.030734599 -0.0032377148 0.0056040897 -0.3817123 -0.036075324 0.18528171 -0.33627662 -0.17572172
-0.13195954 0.028433407 -0.05139212 -0.37920663 0.01420364 -0.63491803 -0.21825263 0.054036044
0.013538872 -0.033521693 -0.1064053 -0.0457186 -0.26852328 0.123696186 -0.17490923 0.1389637
-0.13655436 0.18063426 -0.31421542 -0.17028683 -0.07240767 0.046143644 -0.23467642 -0.17209041
-0.20001891 -0.044453654 0.19917403 -0.3750236 -0.08235791 0.024562169 -0.39072892 -0.2789955
0.53188396 1.0669674 0.5868364 0.53842884 1.0577174 0.54530066 0.41583213 0.8037505
0.7403933 0.8528007 0.77300686 0.9478345 0.63400906 0.9193214 0.7480299 0.8350055
0.88322765 0.86963063 0.6704272 0.77744395 0.98088694 0.81792456 0.73985547 0.80605906
1.1547168 0.89873767 1.1287208 0.54840165 0.6005744 1.0327506 0.5112512 0.670558
-0.020992164 0.4286264 0.0056503485 0.07372739 0.28413567 0.030465774 0.11741315 -0.13481545
-0.13843378 0.12139782 0.18754554 0.03738475 -0.15661563 0.048314717 -0.1549415 0.13759515
0.31320882 -0.035873976 -0.021610128 0.19329324 0.2561579 -0.18113568 0.038018223 0.38376948
0.33943558 -0.34860936 -0.17106554 -0.11392274 0.14912368 -0.28367743 -0.051359005 0.23679094
0.0 0.0 0.0 0.0 0.0 0.0 0.0 0.0
0.0 0.0 0.0 0.0 0.0 0.0 0.0 0.0
0.0 0.0 0.0 0.0 0.0 0.0 0.0 0.0
0.0 0.0 0.0 0.0 0.0 0.0 0.0 0.0
0.0 0.0 0.0 0.0 0.0 0.0 0.0 0.0
0.0 0.0 0.0 0.0 0.0 0.0 0.0 0.0
0.0 0.0 0.0 0.0 0.0 0.0 0.0 0.0
0.0 0.0 0.0 0.0 0.0 0.0 0.0 0.0
0.0 0.0 0.0 0.0 0.0 0.0 0.0 0.0
0.0 0.0 0.0 0.0 0.0 0.0 0.0 0.0
0.0 0.0 0.0 0.0 0.0 0.0 0.0 0.0
0.0 0.0 0.0 0.0 0.0 0.0 0.0 0.0
0.0 0.0 0.0 0.0 0.0 0.0 0.0 0.0
0.0 0.0 0.0 0.0 0.0 0.0 0.0 0.0
0.0 0.0 0.0 0.0 0.0 0.0 0.0 0.0
0.0 0.0 0.0 0.0 0.0 0.0 0.0 0.0
00000000: 52e8 98bd d9c7 833d 320b 26bd c4fe b7be
00000010: 8eb9 ea3c 2ab1 0bbf 6fbb 5bbe ff33 55bd
00000020: 5645 193d c2ec 793d 469b cfbd 0917 d2bd
00000030: 13a2 83be 5a8b b93c 7e19 b5bd 43cc 073e
00000040: b2fe cf38 6198 783d f81a 90be 2585 15be
00000050: 0e64 a43c df83 ffbc 5144 e8bd 824d 33bd
00000060: 20c7 fb3c d72f 54bb 83a2 b73b cb6f c3be
00000070: b8c3 13bd 7dba 3d3e 732c acbe 65f0 33be
00000080: 6720 07be 2ded e83c 8b80 52bd 5f27 c2be
00000090: 62b6 683c fd89 22bf 9e7d 5fbe e654 5d3d
000000a0: 25d2 5d3c 0b4e 09bd 06eb d9bd 6d43 3bbd
000000b0: e27b 89be 6d54 fd3d 681b 33be 804c 0e3e
000000c0: e8d4 0bbe 30f8 383e d8e0 a0be ac5f 2ebe
000000d0: 794a 94bd 1e01 3d3d 044f 70be 7838 30be
000000e0: c2d1 4cbe 0915 36bd 47f4 4b3e 1803 c0be
000000f0: 44ab a8bd 9a36 c93c 9f0d c8be 80d8 8ebe
00000100: 8c29 083f 6392 883f e93a 163f 79d6 093f
00000110: 4963 873f d398 0b3f f3e7 d43e 98c2 4d3f
00000120: 6a8a 3d3f 2651 5a3f c7e3 453f 48a5 723f
00000130: 6b4e 223f a658 6b3f e37e 3f3f ecc2 553f
00000140: 351b 623f 1da0 5e3f 1ea1 2b3f 9106 473f
00000150: 681b 7b3f 8163 513f 2b67 3d3f e359 4e3f
00000160: c3cd 933f ac13 663f ec79 903f 0d64 0c3f
00000170: 3ebf 193f 2c31 843f 5ce1 023f b0a9 2b3f
00000180: c2f7 abbc eb74 db3e 8f26 b93b 63fe 963d
00000190: 3b7a 913e 5c93 f93c 4e76 f03d 100d 0abe
000001a0: 96c1 0dbe 6c9f f83d f00b 403e c020 193d
000001b0: d95f 20be a7e5 453d fca8 1ebe bee5 0c3e
000001c0: e85c a03e 97f0 12bd b907 b1bc aaee 453e
000001d0: 2127 833e a27b 39be ffb8 1b3d 6f7d c43e
000001e0: 80ca ad3e ed7c b2be ce2b 2fbe 5350 e9bd
000001f0: e1b3 183e 2b3e 91be d25d 52bd 5379 723e
00000200: 0000 0000 0000 0000 0000 0000 0000 0000
00000210: 0000 0000 0000 0000 0000 0000 0000 0000
00000220: 0000 0000 0000 0000 0000 0000 0000 0000
00000230: 0000 0000 0000 0000 0000 0000 0000 0000
00000240: 0000 0000 0000 0000 0000 0000 0000 0000
00000250: 0000 0000 0000 0000 0000 0000 0000 0000
00000260: 0000 0000 0000 0000 0000 0000 0000 0000
00000270: 0000 0000 0000 0000 0000 0000 0000 0000
00000280: 0000 0000 0000 0000 0000 0000 0000 0000
00000290: 0000 0000 0000 0000 0000 0000 0000 0000
000002a0: 0000 0000 0000 0000 0000 0000 0000 0000
000002b0: 0000 0000 0000 0000 0000 0000 0000 0000
000002c0: 0000 0000 0000 0000 0000 0000 0000 0000
000002d0: 0000 0000 0000 0000 0000 0000 0000 0000
000002e0: 0000 0000 0000 0000 0000 0000 0000 0000
000002f0: 0000 0000 0000 0000 0000 0000 0000 0000
00000300: 0000 0000 0000 0000 0000 0000 0000 0000
00000310: 0000 0000 0000 0000 0000 0000 0000 0000
00000320: 0000 0000 0000 0000 0000 0000 0000 0000
00000330: 0000 0000 0000 0000 0000 0000 0000 0000
00000340: 0000 0000 0000 0000 0000 0000 0000 0000
00000350: 0000 0000 0000 0000 0000 0000 0000 0000
00000360: 0000 0000 0000 0000 0000 0000 0000 0000
00000370: 0000 0000 0000 0000 0000 0000 0000 0000
00000380: 0000 0000 0000 0000 0000 0000 0000 0000
00000390: 0000 0000 0000 0000 0000 0000 0000 0000
000003a0: 0000 0000 0000 0000 0000 0000 0000 0000
000003b0: 0000 0000 0000 0000 0000 0000 0000 0000
000003c0: 0000 0000 0000 0000 0000 0000 0000 0000
000003d0: 0000 0000 0000 0000 0000 0000 0000 0000
000003e0: 0000 0000 0000 0000 0000 0000 0000 0000
000003f0: 0000 0000 0000 0000 0000 0000 0000 0000

B0__59 f4 [1, 256]
0.09594936 -0.16171171 0.41560602 0.09451269 0.43476644 -0.22890723 0.09413082 0.23488219
0.22930561 0.143544 -0.17286618 -0.05727597 0.023403382 -0.211476 0.09044779 -0.06391523
0.17776506 0.034065064 -0.08921528 0.12986456 0.08579991 0.41577306 -0.5039472 -0.058675557
-0.20271054 0.11835662 0.30317768 0.076812804 0.027245877 0.110524915 0.2805963 0.11094156
0.09558916 -0.01585815 0.33407193 0.22705336 0.28007996 -0.22656412 0.08540816 0.05543293
0.14384119 0.24567728 -0.2505994 -0.2044354 -0.01792296 -0.30580366 0.011409319 -0.07836653
0.2957535 0.07475762 0.03159281 0.13519736 0.19313179 0.29230314 -0.49249536 -0.08276153
-0.0898892 0.15215215 0.19437025 0.055595715 0.10241171 0.22275296 0.24919689 0.17370072
0.8496549 0.74165136 0.7460294 0.87075365 0.7588022 0.84211236 0.73286694 0.74503833
0.6651672 0.84756577 0.86480725 0.7528887 0.76812035 0.7614033 0.6919687 0.7119339
0.814203 0.8408226 0.8323586 0.76026815 0.81009156 0.8496641 0.59076625 0.83924025
0.7756138 0.8138313 0.7971261 0.5984298 0.8680297 0.8282498 0.87560266 0.92634755
-0.07689062 -0.07536388 -0.05208757 0.0057674586 0.07413457 0.093719654 -0.13043131 -0.010597435
-0.001375979 0.07290448 0.11941524 0.19082187 -0.121425696 0.06680029 0.00010486012 -0.035565656
0.06739737 -0.06947826 0.10965946 0.04292059 0.09295766 -0.1329479 0.025348326 -0.027257716
0.009243899 -0.056436267 0.112096615 0.061581936 0.083721906 0.06609041 -0.0882575 0.03742825
0.0 0.0 0.0 0.0 0.0 0.0 0.0 0.0
0.0 0.0 0.0 0.0 0.0 0.0 0.0 0.0
0.0 0.0 0.0 0.0 0.0 0.0 0.0 0.0
0.0 0.0 0.0 0.0 0.0 0.0 0.0 0.0
0.0 0.0 0.0 0.0 0.0 0.0 0.0 0.0
0.0 0.0 0.0 0.0 0.0 0.0 0.0 0.0
0.0 0.0 0.0 0.0 0.0 0.0 0.0 0.0
0.0 0.0 0.0 0.0 0.0 0.0 0.0 0.0
0.0 0.0 0.0 0.0 0.0 0.0 0.0 0.0
0.0 0.0 0.0 0.0 0.0 0.0 0.0 0.0
0.0 0.0 0.0 0.0 0.0 0.0 0.0 0.0
0.0 0.0 0.0 0.0 0.0 0.0 0.0 0.0
0.0 0.0 0.0 0.0 0.0 0.0 0.0 0.0
0.0 0.0 0.0 0.0 0.0 0.0 0.0 0.0
0.0 0.0 0.0 0.0 0.0 0.0 0.0 0.0
0.0 0.0 0.0 0.0 0.0 0.0 0.0 0.0
00000000: 1981 c43d c197 25be 50ca d43e df8f c13d
00000010: b599 de3e a866 6abe a9c7 c03d f584 703e
00000020: 17cf 6a3e 33fd 123e d503 31be 359a 6abd
00000030: 73b8 bf3c 2a8d 58be b13c b93d fde5 82bd
00000040: 0b08 363e cf87 0b3d 80b6 b6bd 37fb 043e
00000050: ddb7 af3d 35e0 d43e af02 01bf c855 70bd
00000060: 5a93 4fbe f564 f23d 1b3a 9b3e 0850 9d3d
00000070: bf32 df3c e35a e23d 51aa 8f3e 5435 e33d
00000080: 40c4 c33d f3e8 81bc 7a0b ab3e ad80 683e
00000090: a466 8f3e 6d00 68be 79ea ae3d a40d 633d
000000a0: 1b4b 133e d392 7b3e 914e 80be 8357 51be
000000b0: 2cd3 92bc 4c92 9cbe 27ee 3a3c a27e a0bd
000000c0: 016d 973e 861a 993d 7667 013d 2d71 0a3e
000000d0: 57c4 453e c2a8 953e 5a28 fcbe e17e a9bd
000000e0: d417 b8bd c6cd 1b3e ff08 473e 55b8 633d
000000f0: 3bbd d13d 5a19 643e 782d 7f3e 9ade 313e
00000100: fc82 593f dddc 3d3f c8fb 3e3f b6e9 5e3f
00000110: dc40 423f ad94 573f 2b9d 3b3f d5ba 3e3f
00000120: 6648 2a3f 12fa 583f 0264 5d3f 50bd 403f
00000130: 89a3 443f 54eb 423f dc24 313f 4d41 363f
00000140: 9c6f 503f 2640 573f 7415 553f efa0 423f
00000150: 2962 4f3f 9683 593f 753c 173f 73d8 563f
00000160: a08e 463f 4057 503f 7510 4c3f b232 193f
00000170: 3237 5e3f 2e08 543f 7f27 603f 1d25 6d3f
00000180: d478 9dbd 6158 9abd c759 55bd f3fc bc3b
00000190: ded3 973d 17f0 bf3d c98f 05be dda0 2dbc
000001a0: 325a b4ba f24e 953d fa8f f43d cf66 433e
000001b0: 09ae f8bd 97ce 883d 59e8 db38 4bad 11bd
000001c0: a207 8a3d 9e4a 8ebd 2495 e03d 80cd 2f3d
000001d0: 9660 be3d 7f23 08be 4ba7 cf3c 934b dfbc
000001e0: b973 173c b729 67bd e992 e53d 573d 7c3d
000001f0: 6476 ab3d 695a 873d 59c0 b4bd 5d4e 193d
00000200: 0000 0000 0000 0000 0000 0000 0000 0000
00000210: 0000 0000 0000 0000 0000 0000 0000 0000
00000220: 0000 0000 0000 0000 0000 0000 0000 0000
00000230: 0000 0000 0000 0000 0000 0000 0000 0000
00000240: 0000 0000 0000 0000 0000 0000 0000 0000
00000250: 0000 0000 0000 0000 0000 0000 0000 0000
00000260: 0000 0000 0000 0000 0000 0000 0000 0000
00000270: 0000 0000 0000 0000 0000 0000 0000 0000
00000280: 0000 0000 0000 0000 0000 0000 0000 0000
00000290: 0000 0000 0000 0000 0000 0000 0000 0000
000002a0: 0000 0000 0000 0000 0000 0000 0000 0000
000002b0: 0000 0000 0000 0000 0000 0000 0000 0000
000002c0: 0000 0000 0000 0000 0000 0000 0000 0000
000002d0: 0000 0000 0000 0000 0000 0000 0000 0000
000002e0: 0000 0000 0000 0000 0000 0000 0000 0000
000002f0: 0000 0000 0000 0000 0000 0000 0000 0000
00000300: 0000 0000 0000 0000 0000 0000 0000 0000
00000310: 0000 0000 0000 0000 0000 0000 0000 0000
00000320: 0000 0000 0000 0000 0000 0000 0000 0000
00000330: 0000 0000 0000 0000 0000 0000 0000 0000
00000340: 0000 0000 0000 0000 0000 0000 0000 0000
00000350: 0000 0000 0000 0000 0000 0000 0000 0000
00000360: 0000 0000 0000 0000 0000 0000 0000 0000
00000370: 0000 0000 0000 0000 0000 0000 0000 0000
00000380: 0000 0000 0000 0000 0000 0000 0000 0000
00000390: 0000 0000 0000 0000 0000 0000 0000 0000
000003a0: 0000 0000 0000 0000 0000 0000 0000 0000
000003b0: 0000 0000 0000 0000 0000 0000 0000 0000
000003c0: 0000 0000 0000 0000 0000 0000 0000 0000
000003d0: 0000 0000 0000 0000 0000 0000 0000 0000
000003e0: 0000 0000 0000 0000 0000 0000 0000 0000
000003f0: 0000 0000 0000 0000 0000 0000 0000 0000

B0__101 f4 [1, 256]
0.022817127 0.108754784 0.06869152 -0.0027960062 -0.052451625 -0.023997698 -0.01761997 -0.07368543
-0.09272572 -0.1770589 0.23994999 -0.024139581 0.029817563 -0.0002827334 -0.014054481 -0.013224564
-0.007878644 -0.1478328 0.0005251629 0.059909582 0.019415451 0.07069648 -0.01800723 -0.101722725
0.024520641 0.09160056 -0.24219577 -0.10923788 0.038543426 0.036856316 0.0012284296 -0.022771802
0.08219559 0.15362999 -0.08100389 0.10108276 0.034249824 0.03562588 -0.056638174 -0.1025936
-0.04046234 -0.04232433 0.1145752 0.018829204 0.0821309 0.029014463 0.05016396 0.06107565
0.06022424 -0.115255296 -0.014832022 0.12703802 0.10948335 0.13693495 0.059735157 -0.15445456
0.08407159 0.17670226 -0.16609511 -0.11551539 0.06724685 0.10881684 0.03197261 -0.03878364
1.0943561 1.3904679 0.9524299 1.2532579 0.6990339 1.0158436 0.88664097 0.9370221
0.94074076 0.6609349 1.3147264 0.9970903 1.078977 1.0671052 1.0374049 0.9347957
1.0032103 0.80080485 0.9139537 1.1085677 1.0559939 1.1079359 1.0247456 0.89232
1.1081777 1.0809879 0.79617655 1.0005562 1.0224526 1.0756637 0.9970083 0.7354435
0.13099575 -0.17398064 -0.053118736 0.19001487 -0.09315502 -0.12819752 0.11450374 -0.13214667
0.07035959 -0.17694828 -0.034956656 0.10219908 -0.12350863 0.1245905 -0.113121994 0.12326269
0.12222351 -0.14164905 -0.1579649 0.12393058 -0.10507472 -0.12369694 0.11537092 0.16157481
-0.12377737 -0.11950924 0.15446487 0.011326555 -0.18156923 0.118926786 0.16694805 -0.18143074
0.0 0.0 0.0 0.0 0.0 0.0 0.0 0.0
0.0 0.0 0.0 0.0 0.0 0.0 0.0 0.0
0.0 0.0 0.0 0.0 0.0 0.0 0.0 0.0
0.0 0.0 0.0 0.0 0.0 0.0 0.0 0.0
0.0 0.0 0.0 0.0 0.0 0.0 0.0 0.0
0.0 0.0 0.0 0.0 0.0 0.0 0.0 0.0
0.0 0.0 0.0 0.0 0.0 0.0 0.0 0.0
0.0 0.0 0.0 0.0 0.0 0.0 0.0 0.0
0.0 0.0 0.0 0.0 0.0 0.0 0.0 0.0
0.0 0.0 0.0 0.0 0.0 0.0 0.0 0.0
0.0 0.0 0.0 0.0 0.0 0.0 0.0 0.0
0.0 0.0 0.0 0.0 0.0 0.0 0.0 0.0
0.0 0.0 0.0 0.0 0.0 0.0 0.0 0.0
0.0 0.0 0.0 0.0 0.0 0.0 0.0 0.0
0.0 0.0 0.0 0.0 0.0 0.0 0.0 0.0
0.0 0.0 0.0 0.0 0.0 0.0 0.0 0.0
00000000: fcea ba3c d4ba de3d 24ae 8c3d 333d 37bb
00000010: 84d7 56bd d296 c4bc c157 90bc 63e8 96bd
00000020: fbe6 bdbd ee4e 35be 73b5 753e 5fc0 c5bc
00000030: f643 f43c d63b 94b9 c444 66bc d7ab 58bc
00000040: 6e15 01bc 7b61 17be 16ab 093a c063 753d
00000050: 270d 9f3c 51c9 903d e683 93bc 0154 d0bd
00000060: 83df c83c 1399 bb3d 2b02 78be 1cb8 dfbd
00000070: b6df 1d3d a6f6 163d 4203 a13a ee8b babc
00000080: 2956 a83d 2e51 1d3e 5ee5 a5bd 7a04 cf3d
00000090: 8b49 0c3d 71ec 113d 6efd 67bd 981c d2bd
000000a0: d7bb 25bd 475c 2dbd 67a6 ea3d b43f 9a3c
000000b0: 3f34 a83d bdaf ed3c b978 4d3d 762a 7a3d
000000c0: b1ad 763d f80a ecbd 0202 73bc 4116 023e
000000d0: ce38 e03d ad38 0c3e daac 743d 5629 1ebe
000000e0: ba2d ac3d 70f1 343e d614 2abe 5593 ecbd
000000f0: b7b8 893d 5ddb de3d b6f5 023d 98db 1ebd
00000100: dc13 8c3f dafa b13f 72d2 733f c16a a03f
00000110: e3f3 323f 2a07 823f e7fa 623f aee0 6f3f
00000120: 63d4 703f 0833 293f f448 a83f 4f41 7f3f
00000130: eb1b 8a3f e796 883f afc9 843f c54e 6f3f
00000140: 3269 803f 8c01 4d3f dff8 693f 8ce5 8d3f
00000150: cf2a 873f d8d0 8d3f dd2a 833f 156f 643f
00000160: c4d8 8d3f d05d 8a3f 3ad2 4b3f 3a12 803f
00000170: badf 823f 59af 893f f03b 7f3f 0646 3c3f
00000180: c023 063e fb27 32be 0893 59bd 4293 423e
00000190: 0fc8 bebd 3646 03be f080 ea3d 7551 07be
000001a0: b018 903d ee31 35be b62e 0fbd c04d d13d
000001b0: 18f2 fcbd 4e29 ff3d 81ac e7bd 2671 fc3d
000001c0: 5250 fa3d 730c 11be 8dc1 21be 51cf fd3d
000001d0: 6a31 d7bd d254 fdbd 9747 ec3d de73 253e
000001e0: fd7e fdbd 43c1 f4bd 0a2c 1e3e 0493 393c
000001f0: 49ed 39be e38f f33d 6ef4 2a3e fbc8 39be
00000200: 0000 0000 0000 0000 0000 0000 0000 0000
00000210: 0000 0000 0000 0000 0000 0000 0000 0000
00000220: 0000 0000 0000 0000 0000 0000 0000 0000
00000230: 0000 0000 0000 0000 0000 0000 0000 0000
00000240: 0000 0000 0000 0000 0000 0000 0000 0000
00000250: 0000 0000 0000 0000 0000 0000 0000 0000
00000260: 0000 0000 0000 0000 0000 0000 0000 0000
00000270: 0000 0000 0000 0000 0000 0000 0000 0000
00000280: 0000 0000 0000 0000 0000 0000 0000 0000
00000290: 0000 0000 0000 0000 0000 0000 0000 0000
000002a0: 0000 0000 0000 0000 0000 0000 0000 0000
000002b0: 0000 0000 0000 0000 0000 0000 0000 0000
000002c0: 0000 0000 0000 0000 0000 0000 0000 0000
000002d0: 0000 0000 0000 0000 0000 0000 0000 0000
000002e0: 0000 0000 0000 0000 0000 0000 0000 0000
000002f0: 0000 0000 0000 0000 0000 0000 0000 0000
00000300: 0000 0000 0000 0000 0000 0000 0000 0000
00000310: 0000 0000 0000 0000 0000 0000 0000 0000
00000320: 0000 0000 0000 0000 0000 0000 0000 0000
00000330: 0000 0000 0000 0000 0000 0000 0000 0000
00000340: 0000 0000 0000 0000 0000 0000 0000 0000
00000350: 0000 0000 0000 0000 0000 0000 0000 0000
00000360: 0000 0000 0000 0000 0000 0000 0000 0000
00000370: 0000 0000 0000 0000 0000 0000 0000 0000
00000380: 0000 0000 0000 0000 0000 0000 0000 0000
00000390: 0000 0000 0000 0000 0000 0000 0000 0000
000003a0: 0000 0000 0000 0000 0000 0000 0000 0000
000003b0: 0000 0000 0000 0000 0000 0000 0000 0000
000003c0: 0000 0000 0000 0000 0000 0000 0000 0000
000003d0: 0000 0000 0000 0000 0000 0000 0000 0000
000003e0: 0000 0000 0000 0000 0000 0000 0000 0000
000003f0: 0000 0000 0000 0000 0000 0000 0000 0000
