data/CNN_Model_new.onnx (onnx, 73238 bytes, 17 tensors)

const_fold_opt__200 f4 [1, 32, 1]
0	0x3d7d86d2	0.061896153
1	0x3d621bf4	0.05520244
2	0xbd28e7de	-0.04123675
3	0x3e2e1768	0.17001116
4	0x3d2a1635	0.041525085
5	0x3e1f8b5e	0.15580508
6	0x3df491ed	0.11941896
7	0x3d6cb1ee	0.057786874
8	0x3e927132	0.28601986
9	0xbc205da2	-0.009787949
10	0x3a96cb5a	0.0011504695
11	0x3db054af	0.08609902
12	0x3e579df0	0.21056342
13	0xbc99e395	-0.018785277
14	0x3dfc62f9	0.12323565
15	0x3c908adf	0.017644344
16	0x3dc91957	0.09819286
17	0xbd810c05	-0.06301121
18	0xbbad3e77	-0.0052869874
19	0x3e1e3650	0.15450406
20	0x3de9e4d7	0.11420601
21	0x3df7dd01	0.121027
22	0x3d9ffe10	0.078121305
23	0x3c9c43bb	0.019075265
24	0x3dc5438a	0.09632023
25	0x3d054e5b	0.03254543
26	0x3d9f5ab3	0.077809714
27	0x3e0f50f1	0.1399572
28	0x3b595bf4	0.003316638
29	0x3e16d1d1	0.14728476
30	0x3e1406c8	0.14455712
31	0x3e01dd42	0.1268206

const_fold_opt__197 f4 [1, 32, 1]
0	0x3af365b2	0.0018569736
1	0x3cb314e0	0.02186054
2	0xbc7ee614	-0.015557785
3	0xbc47220d	-0.012154114
4	0x3d8d095e	0.06886552
5	0x3da43d6f	0.0801953
6	0xbc3872be	-0.011257825
7	0xbc035271	-0.008015261
8	0xbc7c297c	-0.01539075
9	0x3be8939e	0.0070976755
10	0x3dbd44d4	0.092416435
11	0xbc691637	-0.014226488
12	0x3d815a46	0.063160464
13	0xbc7284e5	-0.014802192
14	0xbc046b68	-0.008082248
15	0x3daceede	0.08443998
16	0xba2fa5e9	-0.0006700443
17	0xbb364f18	-0.002781814
18	0x3c8e4891	0.017368587
19	0xbcabec90	-0.020986825
20	0x3c98f594	0.018671788
21	0xbd13f571	-0.036122743
22	0xbcad49fc	-0.021153443
23	0xbc3cf77f	-0.011533617
24	0xbc03fa03	-0.008055213
25	0x3c8ea27c	0.017411463
26	0x3c65b2b3	0.014019656
27	0x3d2e32a1	0.042528752
28	0xbc01dd4c	-0.007926296
29	0xbd241029	-0.040054474
30	0x3c72d7e0	0.014821976
31	0x3dde85cf	0.10865366

const_fold_opt__189 f4 [1, 32, 1]
0	0x3db06673	0.08613291
1	0x3dee378a	0.11631687
2	0x3d89ad37	0.06722491
3	0x3da37c3a	0.07982679
4	0x3dec2206	0.11529927
5	0x3d8b94c2	0.06815483
6	0x3ddcbb5e	0.10777925
7	0x3df6f38c	0.12058172
8	0x3e1ff0fc	0.15619272
9	0x3dae692d	0.085161544
10	0x3e0228f7	0.1271094
11	0x3e049f99	0.12951507
12	0xbc233209	-0.00996066
13	0x3d5474d2	0.05186922
14	0x3df91cfc	0.121637315
15	0x3d364eb8	0.044508666
16	0x3dfc3c39	0.12316174
17	0x3bc38f44	0.0059680063
18	0x3cbf7a7d	0.023373837
19	0x3ddb5cca	0.107110575
20	0x3d8ab3b0	0.06772554
21	0x3dff008a	0.12451275
22	0x3d92475f	0.07142519
23	0x3e056c09	0.13029493
24	0x3d64e8bf	0.055886026
25	0xbb0282f8	-0.001991449
26	0x3caf78be	0.021419879
27	0x3d216216	0.039400183
28	0x3d8accb7	0.067773275
29	0x3c669d2f	0.014075561
30	0x3cb75e7e	0.022383925
31	0xba5aa3a8	-0.0008340427

const_fold_opt__186 f4 [1, 32, 1]
0	0x3cfcc778	0.030856833
1	0x3d5455f2	0.051839776
2	0xbcb08b33	-0.02155075
3	0xbbebb045	-0.007192644
4	0x3c1db9c5	0.00962681
5	0x3e165e58	0.14684427
6	0x3c36435e	0.01112446
7	0xbc14fba9	-0.009093204
8	0xbb90427c	-0.004402457
9	0x3d039f40	0.032134295
10	0x3badb037	0.0053005475
11	0x3d56835e	0.052371375
12	0xbbd8b88b	-0.006613796
13	0x3c450b6d	0.01202665
14	0x3d3e15d2	0.04640753
15	0xbd4f8063	-0.05065955
16	0xbc9edf04	-0.019393452
17	0xbd541e8b	-0.05178694
18	0x3db93b7a	0.090445474
19	0xbc8bd725	-0.017070362
20	0x3d59fe3b	0.05322097
21	0x3cf14b02	0.029454712
22	0x3e0b7ae0	0.13621092
23	0x3db84a89	0.089985915
24	0x3d7062a0	0.058687806
25	0x3ce1de1e	0.027571734
26	0x3d86616d	0.06561551
27	0x3d1b788c	0.03795676
28	0x3d1e2f7f	0.038619515
29	0x3c927712	0.017879043
30	0xbd1364c5	-0.035984773
31	0xbc2bde4c	-0.010490011

const_fold_opt__182 f4 [1, 32, 1]
0	0xbcd4e3ef	-0.025987593
1	0x3d055635	0.032552917
2	0xbcdb6a14	-0.02678398
3	0xbd8d089a	-0.06886406
4	0x3c11fa1a	0.0089097265
5	0x3cefe005	0.029281626
6	0x3cf7dc66	0.030256461
7	0x3d0c55a7	0.034261372
8	0x3d7e42ac	0.062075302
9	0xbceda684	-0.029010065
10	0x3d9f1924	0.07768467
11	0x3d22df8c	0.039763972
12	0xbc1f17e7	-0.009710289
13	0xbbb76573	-0.0055968105
14	0x3db5a122	0.08868624
15	0x3c494728	0.012285031
16	0x3d98b2b4	0.0745596
17	0x3e353399	0.17695464
18	0x3d4dedab	0.050275486
19	0xbd7a1c6c	-0.06106226
20	0x3d30d2be	0.04316973
21	0x3c4317c3	0.011907521
22	0x3d5b490d	0.053536464
23	0x3d9972ab	0.07492574
24	0x3e0e68f3	0.13907222
25	0xbb8f33b2	-0.0043701762
26	0x3d29279b	0.041297536
27	0x3d740df3	0.059583616
28	0x3d6d7041	0.05796838
29	0xbd511ff0	-0.05105585
30	0x3cba5528	0.022745684
31	0x3d45455c	0.04816185

const_fold_opt__180 f4 [1, 32, 1]
0	0x00000000	0.0
1	0xbcdaa3bc	-0.026689403
2	0x3b076771	0.002066102
3	0xbc1820e1	-0.009285183
4	0x3da4fe42	0.08056308
5	0x00000000	0.0
6	0xbb52a3c4	-0.003214107
7	0x3d8074ae	0.06272255
8	0x3ce5f9bb	0.028073182
9	0x3d2005c2	0.03906799
10	0x3df1e253	0.11810746
11	0x00000000	0.0
12	0xbd5a40b0	-0.053284347
13	0x3d44179e	0.047874086
14	0x3db56cc6	0.088586375
15	0xbd0795de	-0.03310191
16	0x3bdf5b49	0.006816302
17	0xbc97323c	-0.01845657
18	0xbc846548	-0.016161576
19	0x3d786934	0.060647205
20	0x3c59eb1e	0.013300685
21	0xbc72eabc	-0.014826473
22	0xbc8a7a9e	-0.016904172
23	0xbc28f705	-0.0103128
24	0xbcd893e7	-0.026437713
25	0x00000000	0.0
26	0xbcea1477	-0.028574212
27	0x3ce86cb2	0.028372142
28	0x3df0d4a1	0.11759306
29	0xbbc491fa	-0.005998847
30	0x00000000	0.0
31	0x3dbe6410	0.09296429

const_fold_opt__178 f4 [1, 32, 1]
0	0x3b81045d	0.0039372877
1	0x3da8e43c	0.08246657
2	0x3cbc8471	0.023012372
3	0x3dccf4e0	0.10007644
4	0x3deaa1a7	0.11456614
5	0x3c8d29dc	0.017231874
6	0x3d1e02e4	0.038576975
7	0x3d122e6c	0.035688803
8	0x3dbf3955	0.09337107
9	0x3d06658d	0.03281169
10	0x3d4f124e	0.050554566
11	0x3bca7b84	0.006179275
12	0xbce9330b	-0.028466722
13	0x3de55c48	0.11199242
14	0xbbed3e20	-0.007240072
15	0x3d017d3c	0.031613573
16	0x3e0b3dd8	0.1359781
17	0xbc5b6ef8	-0.013393156
18	0x3c169123	0.009189877
19	0x3de4dd78	0.11175054
20	0x3ce12add	0.02748626
21	0xbacc591d	-0.0015590523
22	0xbd0bcfcf	-0.03413373
23	0x3c5c963f	0.013463556
24	0x3d753f76	0.059874974
25	0x3dce6230	0.100773215
26	0x3d120442	0.03564859
27	0x3d9a9954	0.07548776
28	0x3ca54c5b	0.02017801
29	0x3c1abf99	0.0094450945
30	0xbb99b011	-0.004690178
31	0xbcc534f2	-0.024073098

StatefulPartitionedCall/model/dense_1/MatMul/ReadVariableOp:0 f4 [16, 1]
0	0xbe9d5007	-0.3072512
1	0xbf0d64fe	-0.55232227
2	0x3ea36782	0.31914908
3	0xbe0c7e19	-0.13719977
4	0xbed75db4	-0.42063677
5	0x3e2e3fa2	0.17016461
6	0xbeca5107	-0.39514944
7	0x3eafe4ee	0.34354347
8	0x3e99751c	0.2997216
9	0xbe165994	-0.14682609
10	0x3ef46f92	0.4774137
11	0x3e8fa814	0.2805792
12	0xbef48f80	-0.47765732
13	0x3eac1876	0.33612412
14	0x3f00d034	0.5031769
15	0x3d3360e4	0.043793574

StatefulPartitionedCall/model/dense/MatMul/ReadVariableOp:0 f4 [98, 16]
0	0xbe5b166e	-0.21395275
1	0x3cfe0eef	0.03101298
2	0xbe168fdf	-0.1470332
3	0x3b3f4229	0.0029183722
4	0x3e1c44ee	0.1526067
5	0xbe3c6c80	-0.18400764
6	0x3dbb7efe	0.09155081
7	0x3e1ee522	0.15517095
8	0xbc96b225	-0.018395493
9	0xbcbc73dc	-0.023004465
10	0xbd82618b	-0.06366261
11	0xbe4ee0a0	-0.20202875
12	0x3e0bff52	0.13671616
13	0xbe82183f	-0.25409123
14	0xbe10d509	-0.14143766
15	0x3e23ce94	0.15996772
16	0x3dad6132	0.08465804
17	0xbe4f7349	-0.20258822
18	0xbd21eb01	-0.039530758
19	0xbea1c1dc	-0.31593215
20	0x3d9f5f01	0.077817924
21	0xbe41db2f	-0.18931268
22	0xbe712e9e	-0.2355294
23	0x3cca9b90	0.024732381
24	0x3e492637	0.19643484
25	0x3d143c8a	0.036190547
26	0x3da268b7	0.07930129
27	0xbe397c5c	-0.18113846
28	0xbdebd644	-0.11515477
29	0x3d8b675a	0.06806822
30	0x3e4ad0b2	0.19806173
31	0xbe57661e	-0.21035048
32	0xbdd09199	-0.101840205
33	0x3d1a9aaf	0.037745174
34	0x3e48655a	0.19569913
35	0xbe53bae9	-0.2067677
36	0xbe2bc699	-0.16774978
37	0xbdbb4b81	-0.091452606
38	0x3981acd5	0.00024733567
39	0xbceb0685	-0.028689632
40	0x3e177a16	0.14792666
41	0x3e3257f1	0.1741636
42	0xbd47744e	-0.0486949
43	0xbdad328f	-0.08456909
44	0x3d0d8292	0.03454835
45	0x3e130042	0.14355567
46	0xbe054d47	-0.1301776
47	0xbd895a0a	-0.06706627
48	0x3dd51bb1	0.10405672
49	0x3dca17e7	0.0986784
50	0x3e23263c	0.15932554
51	0xbe36f21a	-0.17865792
52	0xbd8e08fb	-0.06935307
53	0xbe54db6c	-0.20786828
54	0xbdd0aae7	-0.10188847
55	0x3dbd6cf5	0.092492975
56	0xbe2fed97	-0.17180477
57	0x3df7d4ce	0.12101136
58	0x3e5c4ccd	0.21513672
59	0x3e1a24ec	0.15053147
60	0xbe40be26	-0.18822536
61	0x3df75ab7	0.12077849
62	0x3d8a018f	0.067385785
63	0xbda0c04d	-0.078491785
64	0xbe574fb2	-0.21026495
65	0xbead37dd	-0.33831683
66	0xbdfb9bce	-0.12285577
67	0xbe8b15b0	-0.27164984
68	0xbe88d127	-0.2672207
69	0x3e3968b6	0.1810635
70	0xbe387f7a	-0.18017378
71	0x3c60b0ae	0.013713999
72	0x3e435992	0.19077137
73	0xbe363de2	-0.17797044
74	0xbd82429b	-0.0636036
75	0xbdb464a6	-0.0880826
76	0xbdd4a61d	-0.10383246
77	0x3c67881d	0.014131573
78	0x3dfcc643	0.12342503
79	0x3e357eda	0.17724171
80	0x3d8e893e	0.069597706
81	0xbcea0467	-0.028566552
82	0xbdca8ef2	-0.09890546
83	0xbd7e10c0	-0.062027693
84	0xbd9fdd50	-0.07805884
85	0xbe2a782d	-0.16647406
86	0xbe78e249	-0.24305071
87	0x3da8830b	0.082281195
88	0x3d457e2b	0.048216026
89	0x3e3a8196	0.18213496
90	0xbd0442a0	-0.0322901
91	0xbe638760	-0.2221961
92	0xbe31faed	-0.17380877
93	0xbe8a0ffd	-0.26965323
94	0xbe16ca65	-0.14725645
95	0xbe0b505f	-0.13604878
96	0x3d90c9ba	0.07069726
97	0xbd11bade	-0.0355786
98	0xbd386422	-0.04501737
99	0xbd30ff02	-0.043211944
100	0xbd805632	-0.062664405
101	0xbe1bb1cc	-0.15204543
102	0xbcd593dd	-0.026071483
103	0x3bf099e9	0.0073425663
104	0x3d9cfd9c	0.0766556
105	0xbe3806fe	-0.17971417
106	0x3df349bd	0.11879299
107	0x3dd2f30f	0.10300266
108	0xbe1d57ae	-0.15365478
109	0x3d9cffa5	0.07665948
110	0xbcb63368	-0.02224131
111	0xbdc7436f	-0.09729659
112	0xbc38c438	-0.011277251
113	0x3dcf6f75	0.101286806
114	0x3e24065d	0.16018052
115	0x3e84f686	0.25969332
116	0xbc388a9a	-0.011263514
117	0xbe03a6d9	-0.12856616
118	0x3dd8232e	0.10553585
119	0x3e0c4a51	0.13700224
120	0xbe87b121	-0.26502326
121	0xbc2059a5	-0.009786998
122	0xbe6221fa	-0.22083274
123	0xbd837981	-0.064196594
124	0x3e200f2e	0.1563079
125	0xbe00c7e2	-0.12576249
126	0xbe4fb722	-0.20284703
127	0xbe4fca5d	-0.20292039
128	0xbe5fd5a4	-0.21858841
129	0x3e42cf0a	0.19024292
130	0x3db56097	0.08856314
131	0xbe24e40a	-0.16102615
132	0xbd362d69	-0.0444769
133	0x3df35952	0.11882271
134	0xbd7fa176	-0.06240984
135	0x3e5b9f8f	0.21447586
136	0x3dec428f	0.115361325
137	0x3e5c61f5	0.21521743
138	0xbc82df14	-0.015975513
139	0x3d961d87	0.07329851
140	0x3d631aa1	0.055445317
141	0x3e0fc8cf	0.14041446
142	0xbda20d73	-0.079127215
143	0x3e40e79e	0.18838355
144	0x3e39fe6d	0.18163462
145	0xbd948ce0	-0.07253432
146	0xbe1df2cd	-0.15424652
147	0xbe2044ff	-0.1565132
148	0x3e03c208	0.12866986
149	0xbe873fa7	-0.2641575
150	0xbc9cace7	-0.019125415
151	0xbe92d070	-0.2867465
152	0xbdc9e3b3	-0.09857883
153	0xbd581adc	-0.05275999
154	0xbe8995a7	-0.26871988
155	0xbe8508c7	-0.2598326
156	0x3e23d782	0.16000178
157	0x3d2825a3	0.04105152
158	0xbdff0dae	-0.12453781
159	0xbe130c28	-0.14360106
160	0x3d85de96	0.065365955
161	0xbde4a7c5	-0.11164812
162	0xbe56cc24	-0.20976311
163	0x3dd1e07d	0.10247896
164	0xbe4f6f7d	-0.20257373
165	0xbe63b29a	-0.222361
166	0xbd45ffa9	-0.04833952
167	0x3d9844fd	0.074350335
168	0xbcca4758	-0.024692222
169	0x3dbe8700	0.09303093
170	0xbe077741	-0.13229086
171	0xbdb6cafd	-0.08925436
172	0xbe15bf21	-0.14623691
173	0x3d8c2792	0.06843485
174	0xbe45d0d2	-0.1931794
175	0xbb947ff3	-0.0045318543
176	0xbd953e50	-0.07287276
177	0xbd4c7d64	-0.04992427
178	0x3d4992cf	0.049212273
179	0xbce7bfec	-0.028289758
180	0x3e4da5b8	0.20082748
181	0x3d76986f	0.060203966
182	0x3cbc42b8	0.022981033
183	0xbdf6389d	-0.12022517
184	0x3c9ddcfb	0.01927041
185	0xbd9573c5	-0.07297472
186	0x3c840883	0.01611734
187	0x3e40b7b1	0.18820073
188	0x3c0a5967	0.008444167
189	0x3e1c2d89	0.15251745
190	0x3e4cc4f6	0.1999701
191	0x3b1226ac	0.0022300882
192	0xbe3ba0a2	-0.18322995
193	0xbea8ec9d	-0.32993022
194	0x3d8c39dd	0.06846974
195	0xbdc21623	-0.094768785
196	0xbdaa0c98	-0.08303183
197	0x3d11db85	0.03560974
198	0xbcfdfbeb	-0.031003913
199	0xbe36cf1b	-0.17852442
200	0xbd867cb5	-0.06566755
201	0xbe08100f	-0.13287376
202	0x3cc88f96	0.02448253
203	0xbd9fa833	-0.07795753
204	0xbea020ac	-0.31274927
205	0xbd7493c5	-0.059711237
206	0x3d56dbb5	0.052455623
207	0xbdc18d80	-0.09450817
208	0xbda5b713	-0.08091559
209	0xbdbfae9a	-0.093594745
210	0x3e296bf8	0.16545093
211	0xbe38fa57	-0.18064247
212	0x3e70add5	0.23503812
213	0x3cb5ba59	0.022183584
214	0x3daaa1c5	0.08331636
215	0x3c9d7098	0.019218728
216	0x3e2ceda2	0.16887525
217	0xbe25deb7	-0.1619824
218	0x3d4cbec3	0.049986612
219	0xbd0a877b	-0.03382061
220	0x3e6c9176	0.23102364
221	0x3dc19ef8	0.09454149
222	0x3e61eb45	0.22062404
223	0xbe2116e6	-0.15731391
224	0xbd0945f3	-0.033513974
225	0x3e3c1463	0.18367152
226	0xbe06e1bd	-0.1317205
227	0xbd856350	-0.06513083
228	0x3d87b61b	0.06626531
229	0xbe4eb551	-0.20186354
230	0xbe4cb561	-0.19991066
231	0xbe8abd83	-0.2709771
232	0xbc86fa66	-0.016476821
233	0x3e978fcb	0.29601893
234	0x3dde0e60	0.108425856
235	0xbe0f2359	-0.13978328
236	0x3e00de7d	0.12584873
237	0xbe5577f9	-0.20846547
238	0xbdbab532	-0.091165915
239	0xbd96de93	-0.073666714
240	0xbe57a6e4	-0.21059757
241	0xbd499333	-0.049212646
242	0xbe5df73a	-0.2167634
243	0x3c3432a4	0.010998402
244	0xbe83b8d2	-0.25726944
245	0xbe2550b1	-0.16144063
246	0xbe7b8605	-0.24562843
247	0xbe48b494	-0.19600135
248	0x3d9c6d86	0.076380774
249	0x3d9394ee	0.072061405
250	0x3dea9918	0.114549816
251	0xbe11631c	-0.14197963
252	0xbe49a0d8	-0.19690263
253	0xbe754d1a	-0.23955193
254	0x3cf989f3	0.030461287
255	0xbdb4f300	-0.08835411

StatefulPartitionedCall/model/dense/BiasAdd/ReadVariableOp:0 f4 [16]
0	0xbd2a56d5	-0.041586716
1	0xbd25a3c4	-0.040439382
2	0xbd140964	-0.036141768
3	0xbd16d556	-0.036824547
4	0xbd5bf626	-0.053701542
5	0xbc02d819	-0.007986092
6	0xbcdacf18	-0.026710078
7	0xbd32062f	-0.04346293
8	0xbd1275da	-0.035756923
9	0xbd7884cd	-0.060673524
10	0xbd143ee8	-0.036192805
11	0xbd03f376	-0.032214604
12	0xbd32af42	-0.04362417
13	0xbd2300a4	-0.039795533
14	0xbd1995eb	-0.03749649
15	0xbb2bd648	-0.002622025

StatefulPartitionedCall/model/RZ3/conv1d/ExpandDims_1:0 f4 [32, 32, 1, 3]
0	0x3e2ce225	0.16883142
1	0xbdf68fc1	-0.12039138
2	0xbe5bf5b3	-0.21480446
3	0xbde54a54	-0.111958176
4	0x3d014ea4	0.03156914
5	0xbe38f665	-0.18062742
6	0xbe134013	-0.14379911
7	0xbdb9045b	-0.09034034
8	0x3d8ef0b8	0.06979507
9	0x3d92df6c	0.071715206
10	0x3d98fd1d	0.074701525
11	0xbcb6e75a	-0.022327114
12	0x3e21db57	0.15806328
13	0x3e0cfd81	0.13768579
14	0xbdc92d69	-0.098231144
15	0x3e32d5c0	0.17464352
16	0x3d111d6a	0.035428442
17	0xbe162d1f	-0.1466565
18	0xbe2f2325	-0.1710325
19	0x3ceba652	0.028765831
20	0xbdcbef99	-0.09957809
21	0xbd626a90	-0.055277407
22	0x3ded9962	0.11601521
23	0x3d99829e	0.074956164
24	0xbdcac4e4	-0.09900835
25	0xbdb4dd0f	-0.08831226
26	0x3dbc0147	0.09179931
27	0xbe0e08e4	-0.13870579
28	0x3e01a097	0.12658916
29	0x3dacab4a	0.08431108
30	0x3e22194a	0.1582996
31	0x3db1b7ee	0.0867766
32	0x3e150017	0.14550816
33	0xbde69573	-0.11258974
34	0xbe0ce57a	-0.13759413
35	0xbda3201f	-0.07965111
36	0xbc0c4876	-0.008562198
37	0x3decffa1	0.11572195
38	0x3d8dd12e	0.069246635
39	0xbe2fd5fe	-0.17171475
40	0x3e11591d	0.1419415
41	0x3e2ab8c7	0.1667205
42	0x3de99b3a	0.1140656
43	0xbd8ad3d1	-0.06778682
44	0x3cc0dcb1	0.023542734
45	0xbd876292	-0.06610598
46	0xbe2712c2	-0.1631575
47	0x3dc506cc	0.09620437
48	0xbe004e43	-0.12529854
49	0x3c7a1c83	0.015265587
50	0xbe1e1d88	-0.15440953
51	0xbce08985	-0.027409324
52	0x3dec0f8f	0.11526405
53	0xbc80b0cd	-0.015709305
54	0xbdadfdac	-0.0849565
55	0xbe19b5e8	-0.15010798
56	0x3ba26b24	0.00495662
57	0x3dcd791f	0.10032868
58	0xbd8d44d1	-0.06897891
59	0xbd501974	-0.050805524
60	0x3e200a2d	0.15628882
61	0xbd23be18	-0.03997621
62	0xbe2f0f01	-0.17095567
63	0x3e42695d	0.18985505
64	0x3c1a6af8	0.009424917
65	0xbe113e29	-0.14183868
66	0xbe4be6b1	-0.1991222
67	0xbe4118e9	-0.18857159
68	0xbd9ecce8	-0.077539265
69	0xbe206997	-0.1566528
70	0x3e19fd89	0.15038122
71	0xbcd34e9b	-0.025794318
72	0x3da1b20c	0.07895288
73	0x3e02e93f	0.12784289
74	0x3d3b4a56	0.04572519
75	0xbe1fd4dc	-0.15608543
76	0xbca9e821	-0.02074057
77	0xbdccf661	-0.100079305
78	0x3c5deeed	0.013545734
79	0x3e4287ea	0.1899716
80	0x3e1667dc	0.14688057
81	0x3d56bdad	0.052426983
82	0x3cd71276	0.02625392
83	0x3e0ef3b5	0.13960154
84	0xbe35d2f8	-0.1775626
85	0x3df6e3a4	0.12055138
86	0x3c4c40d7	0.012466631
87	0x3d6a2a00	0.05716896
88	0x3db08fa4	0.08621147
89	0x3d91954d	0.07108555
90	0x3b971e3d	0.004611759
91	0x3e08abf1	0.1334684
92	0xbe22d91f	-0.15903138
93	0xbdee9587	-0.11649614
94	0x3d471b89	0.048610244
95	0x3e37a916	0.17935595
96	0xbd8e4d48	-0.06948334
97	0x3d499c32	0.049221225
98	0x3c613131	0.013744638
99	0x3dab1ffe	0.083557114
100	0x3e24575d	0.16048951
101	0xbdc66a80	-0.09688282
102	0xbce98c1d	-0.028509194
103	0x3d1b0974	0.037850812
104	0xbda0cfcd	-0.07852135
105	0xbdc6f3a8	-0.097144425
106	0x3da82fb6	0.08212225
107	0xbd204cfc	-0.039135918
108	0x3d252b73	0.04032464
109	0xbdd0ad19	-0.10189266
110	0xbe534cd9	-0.20634784
111	0x3d541632	0.05177898
112	0xbe30b535	-0.17256625
113	0xbcae8e0b	-0.021307966
114	0xbdfff87e	-0.12498568
115	0xbd8acb6e	-0.067770824
116	0x3d8c409b	0.0684826
117	0xbe186b8e	-0.14884779
118	0x3e0f127d	0.13971896
119	0xbd2b4498	-0.041813463
120	0x3cf65c7e	0.0300734
121	0x3e31f07b	0.17376892
122	0x3da5f61f	0.081035845
123	0xbe27f047	-0.16400252
124	0xbd59d664	-0.053182974
125	0x3ca51f8c	0.020156644
126	0xbd643628	-0.05571571
127	0xbdd28620	-0.102794886
128	0xbd410234	-0.04712124
129	0xbdcc6657	-0.09980457
130	0x3d527054	0.051376656
131	0x3df9426e	0.121708736
132	0xbe6426b8	-0.22280395
133	0xbd5cd831	-0.053917114
134	0x3e7866c6	0.24257955
135	0xbdbbb0a7	-0.09164553
136	0x3dd50c98	0.10402793
137	0xbe4b622f	-0.19861673
138	0x3e1e1553	0.15437822
139	0xbc98ecb8	-0.018667564
140	0x3e08df41	0.13366415
141	0x3dd45480	0.103676796
142	0xbe262c51	-0.16227843
143	0x3da52a22	0.08064677
144	0xbc1fa572	-0.009744035
145	0x3dc2a0c0	0.09503317
146	0xbc0357fd	-0.0080165835
147	0xbd6ba7a5	-0.057532925
148	0xbd682a3b	-0.0566809
149	0xbd361339	-0.044451926
150	0x3dc70a4c	0.09718761
151	0x3e33e9be	0.17569634
152	0xbd5ae26d	-0.053438593
153	0x3de155d1	0.11002696
154	0xbe2fe557	-0.1717733
155	0xbdc76b4f	-0.09737264
156	0xbe0c0ec4	-0.13677508
157	0x3dffcd2b	0.124903046
158	0xbd5df918	-0.054192632
159	0xbac8c265	-0.0015316723
160	0xbdee53a9	-0.11637051
161	0x3e5ae100	0.21374893
162	0x3e1270ff	0.14300917
163	0xbe17d512	-0.14827374
164	0x3dd9b530	0.10630262
165	0x3d808a48	0.06276375
166	0x3e2e73f7	0.17036425
167	0x3e22df7c	0.15905565
168	0x3e009a34	0.12558824
169	0xbcbe8578	-0.023257002
170	0x3d924cce	0.071435556
171	0xbb6b6fbc	-0.0035924753
172	0xbe479f5c	-0.19494385
173	0x3e0efc62	0.13963464
174	0xbc56fd49	-0.013121911
175	0x3d45cb29	0.04828945
176	0xbce01ece	-0.027358439
177	0x3dd7427c	0.10510728
178	0xbc54c909	-0.012987384
179	0xbd4bd7c4	-0.049766317
180	0x3dba0df2	0.09084691
181	0x3e243400	0.16035461
182	0xbe017de2	-0.12645677
183	0xbcf0c771	-0.029391976
184	0xbdd4e32c	-0.10394892
185	0xbdb2beab	-0.08727773
186	0x3e22f1e9	0.15912594
187	0xbd0095ac	-0.03139274
188	0x3e0cb138	0.13739479
189	0xbe11c955	-0.14236958
190	0x3dbae97b	0.09126564
191	0xbd47eec9	-0.048811708
192	0xbd08a6a1	-0.033362035
193	0x3d6ec500	0.058293343
194	0x3e09b8da	0.13449422
195	0x3ddc1915	0.107469715
196	0xbe3f3398	-0.18672025
197	0x3de62518	0.11237544
198	0x3e183720	0.14864779
199	0xbc3a22ab	-0.011360805
200	0x3d5bc926	0.053658627
201	0xbd82e4a3	-0.06391265
202	0xbdd46065	-0.10369948
203	0x3d03ba76	0.032160245
204	0xbe1b7c7f	-0.1518421
205	0x3da47319	0.08029766
206	0xbd10f300	-0.035387993
207	0xbe4e8706	-0.20168695
208	0x3de53b6a	0.11192973
209	0x3c86a8c2	0.016437892
210	0x3e27f954	0.16403705
211	0x3df0b65c	0.11753532
212	0x3d8492d7	0.0647332
213	0xbded65b3	-0.11591663
214	0x3e1fc8a5	0.15603884
215	0x3dc8a088	0.09796244
216	0x3df893fd	0.121376015
217	0xbe072c91	-0.13200594
218	0xbdab868f	-0.083752744
219	0x3dea3acf	0.11436998
220	0x3c8eae3c	0.017417066
221	0x3c8a04b1	0.01684794
222	0xbe137650	-0.14400601
223	0x3d1f2506	0.038853668
224	0x3e0efb29	0.13962997
225	0xbdaa8934	-0.08326951
226	0xbd871bb8	-0.06597084
227	0xbd1cb5c2	-0.038259275
228	0x3dd5d25f	0.10440516
229	0x3da8225e	0.0820968
230	0x3daea591	0.08527673
231	0x3d5ae76e	0.053443365
232	0x3d99a2f3	0.07501783
233	0x3ddbc4da	0.10730906
234	0x3b22cca5	0.0024841216
235	0xbe023125	-0.1271406
236	0x3dfa89c0	0.12233305
237	0xbdbdb2af	-0.09262597
238	0x3d45c3c4	0.0482824
239	0xbe302746	-0.17202482
240	0xba062c1f	-0.0005118269
241	0x3da7a3c9	0.081855364
242	0x3dd51dee	0.10406099
243	0x3d0a73f3	0.033801984
244	0x3ddeefcf	0.108855836
245	0x3b6bf0a8	0.0036001597
246	0x3b1c3863	0.002383732
247	0xbe402e5e	-0.18767688
248	0xbca0b5bc	-0.019617908
249	0xbc061d3a	-0.008185679
250	0x3ccb1f32	0.024795149
251	0x3de366b5	0.11103574
252	0x3d2ad6a8	0.04170862
253	0x3dd582bf	0.104253285
254	0x3dbdd76f	0.09269606
255	0xbe2c7d7e	-0.16844746

StatefulPartitionedCall/model/RZ2/conv1d/ExpandDims_1:0 f4 [32, 32, 1, 3]
0	0x3e2a7be7	0.16648827
1	0xbe388da5	-0.18022783
2	0xbdf4f418	-0.1196062
3	0xbb502a76	-0.003176359
4	0x3dc1437c	0.094367
5	0x3ce940b9	0.028473245
6	0x3e02daac	0.12778729
7	0xbe6c47ec	-0.23074311
8	0xbe1d268e	-0.15346739
9	0xbd9c9092	-0.07644762
10	0x3d2521a2	0.040315278
11	0x3e860cd8	0.26181674
12	0x3e113e4e	0.14183924
13	0x3de3f75f	0.11131167
14	0x3b8738e8	0.004126657
15	0x3e218249	0.15772356
16	0xb9c2560c	-0.00037066673
17	0x3cc1eaa5	0.023671458
18	0xbe7915f7	-0.24324785
19	0x3d2ab544	0.041676775
20	0xbe65dca6	-0.22447452
21	0x3d40d5ec	0.04707901
22	0x3cd57ccd	0.026060486
23	0xbe00bf47	-0.12572967
24	0x3e3ea5b8	0.18617904
25	0x3bb285d7	0.005448084
26	0xbd447a9f	-0.047968503
27	0xbe70a507	-0.23500453
28	0xbd8634e5	-0.065530576
29	0x3d9a8415	0.07544724
30	0xbe0d97c8	-0.13827431
31	0x3cf2fb63	0.029660886
32	0xbe396a38	-0.18106925
33	0x3e0624bb	0.13099949
34	0xbe2ed114	-0.17071944
35	0x3cba21e7	0.022721244
36	0x3ced163b	0.028941264
37	0xbcd01a4d	-0.025403166
38	0x3c36a42a	0.011147538
39	0xbd6eed85	-0.058331985
40	0xbe1a742d	-0.1508338
41	0x3e084c07	0.13310252
42	0xbdeff353	-0.11716332
43	0xbdb36bf5	-0.087608255
44	0x3e5887d7	0.21145569
45	0x3c6d1e1e	0.0144725125
46	0xbb6f48f3	-0.0036511987
47	0x3d248e7b	0.040174942
48	0x3d8238bb	0.06358477
49	0x3e07dcfc	0.13267893
50	0xbdc871fa	-0.09787364
51	0xbe1af25b	-0.15131514
52	0xbaa640c1	-0.0012684093
53	0xbe268c9d	-0.16264577
54	0xbc8923fb	-0.01674079
55	0xbd284e46	-0.041090272
56	0xbd54234e	-0.05179148
57	0xbc855f1e	-0.016280707
58	0xbcd8b414	-0.026453055
59	0x3e31fe86	0.17382249
60	0xbd9e5953	-0.07731881
61	0x3db069d9	0.08613939
62	0x3e1c4eb9	0.15264405
63	0xbe3ae307	-0.18250667
64	0xbc0c5498	-0.008565091
65	0x3e4bbfa3	0.19897322
66	0x3e251f61	0.16125251
67	0x3d91aa58	0.071125686
68	0xbd71b1ee	-0.059007578
69	0xbc25a6ae	-0.01011054
70	0xbdb6ad6f	-0.089197986
71	0x3d9fa089	0.077942915
72	0xbc1404e0	-0.009034365
73	0xbd8da6ee	-0.06916605
74	0x3c85b661	0.016322317
75	0x3d0df7ba	0.03466008
76	0xbd4737ab	-0.048637073
77	0xbc90985b	-0.017650774
78	0xbd1b8bed	-0.03797524
79	0xbbdc88ca	-0.0067301737
80	0x3c7f503f	0.015583097
81	0x3bbb67c1	0.0057191555
82	0x3e2622d3	0.16224222
83	0xbdaff7df	-0.085921995
84	0xbb358680	-0.0027698576
85	0xbd1cd508	-0.0382891
86	0x3ddbaef2	0.107267275
87	0x3d6eae92	0.058271952
88	0x3dffdbc8	0.12493092
89	0xbd37cd2c	-0.0448734
90	0xbe112e51	-0.14177825
91	0x3d8cb8d3	0.0687119
92	0xbe4cfaa4	-0.20017487
93	0xbe44ce71	-0.19219376
94	0x3d7dc854	0.061958626
95	0xbe0b33b9	-0.1359395
96	0xbd3d273b	-0.04617999
97	0xbd6972d6	-0.05699428
98	0xbd6a3f83	-0.057189476
99	0x3e3e1f1f	0.1856656
100	0x3daf7f51	0.085692056
101	0xbe4a815d	-0.1977591
102	0x3e2cd1e6	0.16876945
103	0x3d5bfc16	0.053707205
104	0xbad5aa1d	-0.0016301308
105	0xb9931cd0	-0.00028059492
106	0x3e281fa9	0.16418327
107	0x3c2b21aa	0.010445038
108	0xbd842876	-0.0645303
109	0x3dd9d8a3	0.10637023
110	0x3d22195a	0.03957496
111	0xbe294368	-0.1652962
112	0xbdb2a0ca	-0.08722074
113	0xbcd8a10d	-0.026443982
114	0x3dc21f4a	0.09478624
115	0xbd8236e1	-0.063581236
116	0x3ddfc0bd	0.10925434
117	0x3e3b2abf	0.18278025
118	0x3e359142	0.17731193
119	0xbd54b254	-0.05192788
120	0x3c9aee29	0.018912392
121	0x3e0505a1	0.12990429
122	0x3e30eba9	0.17277397
123	0x3e256fc8	0.16155922
124	0xbdb404e5	-0.08789996
125	0x3cefdf8b	0.029281398
126	0x3e620420	0.22071886
127	0xbdcd4bce	-0.10024224
128	0xbd8d6b84	-0.069052726
129	0xbdc1a7b6	-0.094558164
130	0x3c253722	0.0100839455
131	0x3c953419	0.018213319
132	0xbe16261a	-0.14662972
133	0x3d8504b5	0.064950384
134	0x3d9ff86f	0.07811057
135	0x3e4a2511	0.19740702
136	0xbd27b551	-0.0409444
137	0xbd8401d3	-0.064456604
138	0xbe0dc487	-0.138445
139	0x3bfea507	0.0077711376
140	0xbd38ef74	-0.045150235
141	0x3d9486f0	0.072523
142	0xbc645e50	-0.0139385015
143	0xbe449e88	-0.192011
144	0xbcaf7355	-0.0214173
145	0x3da6c591	0.081431516
146	0xbd2e9acb	-0.04262809
147	0xbc1b1f32	-0.009467887
148	0xbd881d86	-0.06646256
149	0xbd244e5f	-0.040113803
150	0xbcbc1ebf	-0.02296388
151	0xbdabbfbe	-0.08386181
152	0xbe2d51bf	-0.16925715
153	0xbe024c26	-0.12724361
154	0x3e0d5cac	0.13804883
155	0x3d1712bb	0.036883097
156	0xbe14dd0a	-0.14537445
157	0x3d6e65c4	0.05820252
158	0xbdb56f75	-0.08859149
159	0xbdca4930	-0.09877241
160	0x3cd3b09a	0.025841046
161	0x3b7f55d1	0.0038961063
162	0x3d9fa8cc	0.07795867
163	0x3e1e0716	0.1543239
164	0xbda5c892	-0.080948964
165	0x3e50de97	0.20397411
166	0xbe1586cc	-0.14602202
167	0xbe538266	-0.20655212
168	0xbe36cd78	-0.17851818
169	0x3e3ef045	0.18646343
170	0x3d5f1718	0.054465383
171	0xbd2358e8	-0.03987971
172	0x3daa3ad8	0.08312005
173	0xbe11ea09	-0.14249434
174	0xbd8b22fb	-0.06793781
175	0xbddf0d55	-0.10891215
176	0x3d92f8d4	0.071763664
177	0x3b9c7798	0.004774999
178	0xbd3c7a46	-0.046015047
179	0x3d710601	0.058843616
180	0xbd9de8b1	-0.07710398
181	0xbdff1069	-0.12454302
182	0xbdb19031	-0.086700805
183	0xbc886aa5	-0.016652415
184	0xbc2440e7	-0.01002524
185	0xbcee595b	-0.029095342
186	0x3e3723df	0.17884777
187	0xbdba325e	-0.09091638
188	0xbe11301f	-0.14178513
189	0x3e0749da	0.13211766
190	0xbc7e3e20	-0.015517741
191	0xbe58a0af	-0.21155046
192	0xbe07b25e	-0.13251635
193	0xbe13648c	-0.14393824
194	0x3d657db1	0.05602807
195	0xbd98f365	-0.07468299
196	0xbcd5f073	-0.026115632
197	0xbdc96039	-0.09832806
198	0x3dfefb24	0.12450245
199	0xbd91b4a5	-0.07114533
200	0x3cfea430	0.03108415
201	0xbd8965bf	-0.0670886
202	0x3d9aa7c2	0.075515285
203	0xbe3b7628	-0.18306792
204	0x3d862503	0.06550028
205	0xbcbb3407	-0.022851957
206	0xbdb0e458	-0.08637303
207	0xbddc9a3a	-0.10771604
208	0x3db96cb3	0.09053936
209	0xbd1a9ecd	-0.0377491
210	0x3e094d13	0.13408308
211	0xbe33eb46	-0.17570218
212	0xbde1b07b	-0.11019989
213	0xbc974e96	-0.01847009
214	0x3dc1db06	0.094656035
215	0x3da64671	0.081189044
216	0xbb578c06	-0.0032889857
217	0xbe261112	-0.1621745
218	0xbe233fa3	-0.15942244
219	0x3cd2d49d	0.025736148
220	0xbbcfe9b6	-0.006344999
221	0xbdc5a173	-0.096499346
222	0x3d1a9717	0.037741747
223	0xbd5794f3	-0.052632283
224	0x3d1e55c2	0.038656004
225	0xbdb7bc95	-0.08971516
226	0xbda649df	-0.081195585
227	0x3e1294c2	0.14314559
228	0xbd98ee3c	-0.074673146
229	0xbe19ebca	-0.15031353
230	0x3e093006	0.13397226
231	0xbda055da	-0.07828875
232	0xbe1049d3	-0.14090662
233	0x3d62cbc4	0.055370107
234	0xbda8b44e	-0.082375154
235	0xbdad77b4	-0.08470097
236	0xbdd77a2b	-0.105213486
237	0xbd90228d	-0.0703784
238	0x3c5d77a3	0.013517293
239	0xbdd7cf98	-0.10537642
240	0xbe288191	-0.16455676
241	0x3cee3911	0.029079946
242	0xbe0e0692	-0.13869694
243	0xbdc00bd5	-0.09377257
244	0x3d96df92	0.073668614
245	0x3da8ac80	0.08236027
246	0xbc84eb05	-0.016225347
247	0x3d4f618f	0.05063015
248	0xbe2395c5	-0.15975101
249	0x3baacae5	0.005212175
250	0x3bdc0861	0.006714866
251	0xbe2cde2a	-0.16881624
252	0xbdcdf797	-0.1005699
253	0x3c3ab73a	0.011396224
254	0x3d39a202	0.04532052
255	0x3d5dd36b	0.054156702

StatefulPartitionedCall/model/RZ1/conv1d/ExpandDims_1:0 f4 [32, 1, 1, 3]
0	0x3e49635e	0.19666812
1	0x3e9d9f86	0.3078577
2	0xbe683b4c	-0.2267887
3	0x3e788448	0.24269211
4	0xbe7d5296	-0.24738535
5	0x3de6fa8c	0.11278257
6	0xbe0e88bb	-0.13919346
7	0x3de5eb9d	0.1122658
8	0xbda2ecee	-0.07955347
9	0x3df40aee	0.11916147
10	0xbdd721c9	-0.10504491
11	0x3e5f71e0	0.21820784
12	0x3e0ce173	0.13757877
13	0x3daa9032	0.08328284
14	0x3cd8b0b5	0.026451448
15	0x3d3e548b	0.046467345
16	0x3ea76760	0.32696056
17	0xbc5927c3	-0.013254109
18	0xbe3d8c1e	-0.18510482
19	0xbe88eb0a	-0.2674182
20	0xbe3e6449	-0.18592943
21	0xbe052c08	-0.13005078
22	0xbe7b0a14	-0.24515563
23	0xbe69d560	-0.22835302
24	0x3e4c4052	0.19946411
25	0x3e93d029	0.2886975
26	0xbe787bfc	-0.24266046
27	0xbdaf6e16	-0.08565919
28	0xbd4a8a96	-0.049448572
29	0x3d65387b	0.055962067
30	0xbe922414	-0.2854315
31	0xbe8e1405	-0.2774965
32	0xbd426a0c	-0.047464415
33	0xbc69e8e3	-0.014276716
34	0x3e92e920	0.28693485
35	0xbe48eb91	-0.19621111
36	0x3d33e524	0.043919697
37	0x3e1ee597	0.15517269
38	0xbd8b5cc1	-0.06804801
39	0x3e9e423c	0.30909908
40	0xbd873bc0	-0.06603193
41	0xbe365158	-0.17804468
42	0xbdf05340	-0.11734629
43	0x3d8cdfd7	0.068786316
44	0xbe6a8aa4	-0.2290445
45	0x3e86b598	0.2631042
46	0x3d65b437	0.05608007
47	0x3e4cbda0	0.19994211
48	0x3ded8054	0.11596742
49	0xbe8bb95a	-0.2728985
50	0xbe4120f9	-0.18860234
51	0xbdbe1c15	-0.092827
52	0x3e52f047	0.20599471
53	0xbdafee8d	-0.08590422
54	0xbbbd0c1c	-0.005769266
55	0xbe90cacd	-0.28279725
56	0x3e504901	0.20340349
57	0xbe1878f6	-0.14889893
58	0x3df9e08c	0.12201032
59	0xbe1009c7	-0.1406623
60	0x3e87d268	0.26527715
61	0xbd23f971	-0.040032808
62	0x3e369cd5	0.17833264
63	0x3d529172	0.05140824
64	0x3d7844f5	0.060612638
65	0x3ea8a1f1	0.3293605
66	0x3e476093	0.19470434
67	0x3aec70cb	0.0018038986
68	0xbd2da5c3	-0.04239441
69	0xbe8a9938	-0.27070022
70	0xbea6764c	-0.32512128
71	0xbe03cf8a	-0.12872139
72	0x3e8223db	0.2541798
73	0x3d2d22a5	0.042269368
74	0x3d477114	0.048691824
75	0x3e2abe7c	0.16674227
76	0xbe852287	-0.26002905
77	0xbe63307a	-0.22186461
78	0xbdc04ce3	-0.09389665
79	0xbe91617d	-0.2839469
80	0x3d6717a6	0.056419037
81	0x3e731d43	0.23741631
82	0xbe57926b	-0.21051948
83	0xbe43ccf3	-0.1912115
84	0x3d54edfe	0.05198478
85	0x3d86c86a	0.06581195
86	0x3e4eac01	0.20182802
87	0xbdc83abd	-0.097768284
88	0xbe09ed08	-0.13469326
89	0x3dca1801	0.0986786
90	0xbe84a78c	-0.25909078
91	0xbe474d8d	-0.19463177
92	0xbe2fd7d9	-0.17172183
93	0xbe4cb142	-0.19989493
94	0xbde65e8d	-0.11248503
95	0x3c4f539b	0.01265421

StatefulPartitionedCall/model/QQ2/conv1d/ExpandDims_1:0 f4 [32, 32, 1, 3]
0	0xbe00ff64	-0.12597424
1	0xbddd6d57	-0.108118705
2	0xbdf11bdc	-0.11772892
3	0xbe47f5eb	-0.19527404
4	0xbad0eb10	-0.0015939195
5	0xbd408f7e	-0.047011845
6	0x3cd31d9b	0.025770953
7	0x3d909b45	0.07060865
8	0x3d7dadca	0.061933316
9	0xbda000c0	-0.07812643
10	0xbcf71252	-0.030160103
11	0x3d8fd364	0.070227414
12	0x3df77a93	0.12083926
13	0xbe04ece8	-0.12980998
14	0x3cc4c54e	0.024019863
15	0xbd608ec2	-0.054823644
16	0xbe2cc034	-0.16870195
17	0x3d77dc61	0.060512904
18	0xbda8aa15	-0.082355656
19	0x3e13f0af	0.14447282
20	0xbdea151f	-0.1142981
21	0x3d6213ec	0.05519478
22	0xbdc8e17f	-0.09808635
23	0x3da7a89b	0.08186456
24	0xbda9f243	-0.08298161
25	0x3e3b620f	0.18299125
26	0xbc81f1fe	-0.015862461
27	0xbe079be4	-0.13243061
28	0x3c844b27	0.016149117
29	0x3d495765	0.04915561
30	0x3da74fd9	0.081695266
31	0x3dc80813	0.09767165
32	0x3dae5ce5	0.08513812
33	0x3dbf369f	0.0933659
34	0x3def5144	0.11685422
35	0x3e14badb	0.14524405
36	0x3e026dbb	0.12737171
37	0x3d52f815	0.05150612
38	0xbdd11f32	-0.10211028
39	0xbb94622e	-0.0045283055
40	0x3d21ca94	0.039499834
41	0xbe0e036e	-0.13868496
42	0x3d98f01e	0.07467674
43	0xbd7d6f1d	-0.061873544
44	0xbc507fa5	-0.012725745
45	0xbe2e8707	-0.17043696
46	0x3df70593	0.1206161
47	0x3e14426d	0.14478464
48	0xbe0c9c3d	-0.13731475
49	0xbd922875	-0.07136623
50	0x3e1044f2	0.140888
51	0xbc4704c4	-0.012147132
52	0xbd9cbe51	-0.076534875
53	0x3dface77	0.12246411
54	0x3baabee7	0.0052107456
55	0xbd2c0298	-0.04199466
56	0x3dcf32b8	0.10117096
57	0x3e0d1566	0.13777694
58	0xbc7175e2	-0.014737578
59	0x3e21482b	0.15750186
60	0xbc372e45	-0.011180465
61	0xbe0b2a65	-0.13590391
62	0x3c07498c	0.008257281
63	0x3d0a0f3a	0.033705927
64	0xbda85429	-0.08219177
65	0x3de10587	0.109873824
66	0xbbe633e5	-0.0070252293
67	0xbdb47d20	-0.08812928
68	0x3df7be98	0.120969
69	0x3d97307d	0.07382295
70	0xbd5680c5	-0.052368898
71	0x3dd29c97	0.102837734
72	0x3e0e9fe0	0.13928175
73	0xbcc184dc	-0.023622923
74	0x3e134326	0.14381084
75	0xbde52bbe	-0.11189984
76	0xbe274570	-0.16335082
77	0x3c6647e0	0.014055222
78	0x3d1eb97e	0.038751118
79	0x3cabbce5	0.020964095
80	0xbdfee7a0	-0.12446523
81	0x3df27e12	0.11840452
82	0x3e142c1f	0.14469956
83	0xbd37f909	-0.044915233
84	0x3e1f8ff5	0.15582259
85	0x3d5586b4	0.052130416
86	0x3e167f62	0.1469703
87	0xbe047cdd	-0.12938257
88	0x3de0f03e	0.109833226
89	0xbd4000e3	-0.046875846
90	0xbdaf828c	-0.08569822
91	0xbd9b2bfb	-0.07576748
92	0xbd3496e9	-0.04408923
93	0xbe0511b0	-0.12995028
94	0x3dd08aa5	0.10182694
95	0x3e3dc078	0.18530452
96	0xbcd489a4	-0.025944538
97	0x3e11164e	0.14168665
98	0x3e0201d4	0.1269601
99	0xbd978712	-0.073988095
100	0xbe0d07dd	-0.13772531
101	0xbdf1049b	-0.117684565
102	0x3e282eb6	0.16424069
103	0x3e3cda1f	0.18442582
104	0xbd430cc1	-0.047619585
105	0x3dd85d67	0.1056469
106	0xbdba396b	-0.09092983
107	0x3d5fecc4	0.054669157
108	0x3e548599	0.20754088
109	0x3e0f7198	0.14008176
110	0xbdfe3439	-0.124123044
111	0x3e4290fe	0.19000623
112	0x3b86ae9b	0.00411017
113	0xbe3999f1	-0.1812513
114	0xbe14830d	-0.14503117
115	0x3d397db5	0.0452859
116	0xbd0cb22c	-0.034349605
117	0xbcd1f58e	-0.025629785
118	0x3d1afa61	0.037836436
119	0xbe876524	-0.26444352
120	0x3dcdd8c7	0.100511126
121	0x3e03eb06	0.12882623
122	0x3d1dc532	0.03851814
123	0x3e11166b	0.14168708
124	0x3d75578a	0.059897937
125	0x3ccc7d57	0.02496211
126	0xb9dadc72	-0.00041744445
127	0x3e1bb233	0.15204696
128	0xbd8105a1	-0.06299902
129	0x3e328cf7	0.17436586
130	0xbde475b2	-0.11155261
131	0x3e34e0bf	0.17663859
132	0x3e1e3a0f	0.15451835
133	0x3d2a64d7	0.041600075
134	0x3ca9e2c3	0.020738011
135	0x3d0355e4	0.032064334
136	0xbd107eb1	-0.035277072
137	0x3e469815	0.19393952
138	0xbd7f9453	-0.062397312
139	0xbdc6fbf2	-0.097160235
140	0x3d8b948b	0.06815442
141	0xbd86c517	-0.06580561
142	0x3e122cb4	0.14274865
143	0x3d433a47	0.047663
144	0x3c3c7dbb	0.011504586
145	0xbdb4339b	-0.087989055
146	0x3e51aa50	0.20475125
147	0xbe055628	-0.13021147
148	0xbdcbf7ea	-0.09959395
149	0xbe09e11f	-0.13464783
150	0xbe327cb0	-0.17430377
151	0x3d209716	0.039206587
152	0x3e33da90	0.17563844
153	0xbdbe64b2	-0.0929655
154	0xbe055aa2	-0.13022855
155	0x3e5f7206	0.2182084
156	0x3e32af7b	0.17449753
157	0xbd55bbb0	-0.052180946
158	0xbd8829fe	-0.066486344
159	0x3e28455c	0.16432709
160	0x3dfa5bf9	0.12224574
161	0xbc8ca8b9	-0.017170297
162	0x3e05fe40	0.1308527
163	0x3e122b8a	0.14274421
164	0xbdd400bf	-0.10351705
165	0x3de44d66	0.11147575
166	0x3d53f1cd	0.05174427
167	0x3c3a3886	0.011366015
168	0x3dcee500	0.10102272
169	0xbcba955d	-0.0227763
170	0xbd166afe	-0.03672313
171	0xbdcd7081	-0.10031224
172	0x3dd5bbaf	0.104361884
173	0xba0dee06	-0.00054141914
174	0x3de11c57	0.109917335
175	0x3dfe8aed	0.12428842
176	0x3df7387e	0.12071322
177	0xbd42c09b	-0.047546964
178	0xbd0c21cc	-0.03421192
179	0x3e146928	0.14493239
180	0xbd54373a	-0.05181048
181	0xbe19f7d0	-0.15035939
182	0x3e073bbb	0.13206379
183	0x3dbbe88e	0.09175216
184	0xbd97ed18	-0.07418269
185	0x3dd6fb2f	0.10497128
186	0x3dd434a1	0.10361601
187	0x3e205ee6	0.15661201
188	0x3e52d72d	0.20589896
189	0xbe124dd2	-0.14287499
190	0x3e8a3860	0.26996136
191	0x3e994c9d	0.29941264
192	0xbcab72eb	-0.02092882
193	0x3bb6d04a	0.005579029
194	0xbce4279e	-0.027850922
195	0x3db2d1f0	0.08731449
196	0xbd81436c	-0.06311688
197	0x3be4a84e	0.0069780713
198	0x3e030a8e	0.12796995
199	0xbd8b67e8	-0.06806928
200	0x3c1d37df	0.00959584
201	0x3e1778e5	0.14792211
202	0xbd91c9ec	-0.07118592
203	0x3ce8382d	0.0283471
204	0xbd9916ca	-0.0747505
205	0x3d363cbd	0.04449152
206	0xbd2d03d9	-0.042239998
207	0x3e6832b4	0.22675592
208	0x3e0c50a5	0.13702638
209	0xbe2b72c1	-0.16742994
210	0xbe2290d4	-0.1587556
211	0x3e02c35c	0.12769836
212	0x3e1ee20a	0.15515915
213	0x3d69a73c	0.057044253
214	0xbe080665	-0.1328369
215	0x3d80502c	0.062652916
216	0x3d408de4	0.047010317
217	0x3d22c8a9	0.039742146
218	0x3d8c8eb5	0.06863157
219	0x3dd29dba	0.1028399
220	0xbc7f97b3	-0.015600133
221	0x3cb1a551	0.021685274
222	0xbda0e239	-0.078556485
223	0x3d804557	0.062632255
224	0x3d7ea4bd	0.062168825
225	0xbdb99140	-0.09060907
226	0xbd5cbd4d	-0.05389147
227	0x3dc0b5d3	0.0940968
228	0xbd37950b	-0.044819873
229	0xbd4df923	-0.050286423
230	0xbe53edf7	-0.20696245
231	0xbd0add5c	-0.03390251
232	0xbd715462	-0.058918364
233	0xbcb22317	-0.021745248
234	0x3d08386e	0.03325694
235	0xbdb53d95	-0.088496365
236	0x3d0cea1f	0.034402963
237	0xbe391bfb	-0.1807708
238	0xbd3f8b8e	-0.04676395
239	0xbdb5380b	-0.0884858
240	0xbd6ff3be	-0.05858206
241	0x3dec82a8	0.11548358
242	0x3bf735f1	0.007544272
243	0xbde80689	-0.113293715
244	0x3e1e65b8	0.1546849
245	0xbdc87227	-0.09787398
246	0xbe31c209	-0.17359175
247	0x3d14baba	0.03631089
248	0xbd0efc13	-0.034908365
249	0xbdd67db2	-0.10473193
250	0x3e2f54fd	0.17122264
251	0x3ca4437f	0.020051716
252	0x3db1beec	0.086789936
253	0x3e08e959	0.13370265
254	0xbe43907f	-0.1909809
255	0x3e3f09cf	0.18656085

StatefulPartitionedCall/model/QQ1/conv1d/ExpandDims_1:0 f4 [32, 1, 1, 3]
0	0xbe39e297	-0.18152843
1	0xbe1cadc5	-0.15300663
2	0x3da80040	0.08203173
3	0xbe12f63b	-0.14351742
4	0xbdfdbe41	-0.12389804
5	0xbe7a3182	-0.24432948
6	0x3df57566	0.119852826
7	0x3e6c1416	0.23054537
8	0xbe36838f	-0.17823623
9	0xbca8779a	-0.020564843
10	0xbe1d4ce9	-0.1536137
11	0x3da578fe	0.08079718
12	0x3df44ee1	0.119291075
13	0x3e6a0a3a	0.22855464
14	0x3e973f74	0.29540598
15	0xbe88b8d8	-0.26703525
16	0x3d9a30a9	0.075288124
17	0x3def4e88	0.116849005
18	0xbe3948df	-0.18094204
19	0x3c163973	0.00916897
20	0xbe8ac03e	-0.27099794
21	0xbe2e9557	-0.17049156
22	0xbcd853ca	-0.026407141
23	0x3e4ccddc	0.20000404
24	0x3d2f0f66	0.042739294
25	0xbd94a3fd	-0.07257841
26	0x3e4a19e0	0.19736433
27	0x3d6699e4	0.056299105
28	0x3e4d40c4	0.20044237
29	0x3d5dd415	0.054157335
30	0x3d610778	0.054938763
31	0x3e56c655	0.20974095
32	0x3d21f25a	0.039537765
33	0x3e87d8fa	0.26532727
34	0x3e57c9b1	0.21073033
35	0xbdb425b1	-0.087962516
36	0x3e8179a3	0.25288114
37	0xbc857988	-0.016293302
38	0x3e783b7c	0.24241441
39	0x3e79b9df	0.2438731
40	0xbce7ba05	-0.028286943
41	0x3e0dbe9c	0.13842243
42	0xbe7ebe73	-0.24877338
43	0xbe900450	-0.2812829
44	0x3e2e9736	0.1704987
45	0xbe8748c8	-0.26422715
46	0xbc2bb2c4	-0.010479633
47	0xbe086d56	-0.13322958
48	0xbdfe0c2a	-0.12404664
49	0xbe6a2f27	-0.2286955
50	0xbe31c9a7	-0.1736208
51	0x3e51c4a6	0.20485172
52	0xbddea0b8	-0.108704984
53	0x3d916082	0.070984855
54	0xbdd4549c	-0.103677005
55	0xbe77eeb1	-0.24212147
56	0xbd7443a0	-0.059634805
57	0x3e7bc3c8	0.24586403
58	0xbe53be6c	-0.20678109
59	0xbe925dff	-0.28587338
60	0x3e2bd798	0.16781461
61	0x3bc94c66	0.0061431406
62	0x3e4b4f10	0.19854379
63	0xbce9db46	-0.02854694
64	0x3e7bffb7	0.24609266
65	0xbdb69a5a	-0.08916159
66	0x3d827aa7	0.0637105
67	0x3e88859e	0.26664442
68	0x3e5ea9ad	0.21744414
69	0x3e874272	0.2641788
70	0x3ccca927	0.024983002
71	0x3e095d76	0.13414559
72	0xbdeb2f57	-0.11483639
73	0xbe22154d	-0.15828438
74	0xbd4fd455	-0.050739605
75	0x3dcd3f0c	0.10021791
76	0xbe7e7894	-0.24850684
77	0xbe058b56	-0.13041434
78	0xbe9a6040	-0.30151558
79	0xbe822756	-0.25420636
80	0xbe9bf3e5	-0.30459514
81	0xbe6d6f0d	-0.23186894
82	0x3e027922	0.12741521
83	0x3e265b6c	0.16245812
84	0x3e06f123	0.13177924
85	0xbdd9022a	-0.10596116
86	0x3e23713f	0.15961169
87	0xbd920273	-0.071293734
88	0xbe2e8a40	-0.17044926
89	0xbdcd322a	-0.10019334
90	0x3d386450	0.04501754
91	0x3dc9cf38	0.09853977
92	0xbe4d5c0a	-0.20054641
93	0x3e7ef617	0.24898563
94	0xbe08a2dc	-0.13343376
95	0xbe07339a	-0.13203278

StatefulPartitionedCall/model/PP2/conv1d/ExpandDims_1:0 f4 [32, 32, 1, 3]
0	0xbde7fb94	-0.113272816
1	0xbdabdc24	-0.08391598
2	0x3d2627ec	0.040565416
3	0xbd0530a4	-0.03251709
4	0xbd49a0d0	-0.04922563
5	0x3de4276a	0.1114033
6	0x3e259b75	0.16172583
7	0xbc874c50	-0.01651588
8	0xbd8e3e63	-0.06945493
9	0x3dac0fb2	0.08401431
10	0xbd1646fc	-0.03668879
11	0x3d921582	0.071330085
12	0x3cf6d790	0.030132085
13	0xbd832cf1	-0.06405056
14	0x3d4132d8	0.04716763
15	0x3e0ab745	0.13546474
16	0x3dc7ba5e	0.097523436
17	0xbdb9b428	-0.09067565
18	0xbc2851e0	-0.010273427
19	0xbc6c7e80	-0.014434457
20	0xbe2d90c4	-0.16949755
21	0x3dc8e0fa	0.09808536
22	0xbccabf10	-0.024749309
23	0xbcecc928	-0.028904513
24	0x3e277591	0.16353442
25	0xbe0c1a2b	-0.13681857
26	0xbdc6f92a	-0.09715493
27	0xbe1d6746	-0.15371427
28	0xbe215152	-0.15753677
29	0x3d82bf58	0.06384152
30	0x3e291c59	0.1651472
31	0x3dc684c2	0.0969329
32	0xbe1e1520	-0.15437746
33	0xbde04bc4	-0.10951951
34	0x3e06a2cd	0.13148041
35	0x3dd656ba	0.104657605
36	0xbde86791	-0.11347879
37	0xbe192ee2	-0.1495929
38	0x3e1949f9	0.14969625
39	0xbe2d587f	-0.1692829
40	0xbdb41801	-0.08793641
41	0x3c17a3d0	0.009255365
42	0x3c968228	0.01837261
43	0x3d8f4b92	0.06996836
44	0xbdad9e69	-0.0847748
45	0x3d93a99e	0.07210086
46	0x3ddabae6	0.10680179
47	0x3e1088e9	0.14114727
48	0xbd28969c	-0.041159257
49	0x3c0b4810	0.008501068
50	0x3d053a04	0.03252603
51	0xbdc893cc	-0.09793815
52	0xbde66492	-0.11249651
53	0xbdfeacae	-0.1243528
54	0x3d3d69fc	0.046243653
55	0x3cf86788	0.030322805
56	0x3dedcad2	0.116109505
57	0x3d8c2fb4	0.06845036
58	0x3d873ed2	0.06603779
59	0xbdec1306	-0.11527066
60	0x3de048da	0.10951395
61	0xbe0cacfe	-0.13737866
62	0xbc589a40	-0.01322037
63	0xbd258a80	-0.040415287
64	0xbe0d36e6	-0.13790473
65	0xbd2bcaf4	-0.041941598
66	0xbd9f0ff0	-0.07766712
67	0x3d3b6344	0.045748964
68	0xbe0e120c	-0.13874072
69	0x3e0fe23d	0.14051147
70	0xbe030013	-0.12792997
71	0xbd82b538	-0.06382221
72	0x3e0fe01b	0.14050333
73	0xbe0e5303	-0.13898854
74	0x3e22b0cd	0.15887757
75	0xbe08b681	-0.1335087
76	0xbe17db54	-0.14829761
77	0x3d81a01a	0.06329365
78	0x3e2399bf	0.15976618
79	0xbd9e2100	-0.07721138
80	0xbd1a9c64	-0.037746802
81	0xbe0e9072	-0.13922289
82	0xbe074535	-0.13209994
83	0x3d7596fc	0.059958443
84	0xbd339e94	-0.043852404
85	0xbdd1f81d	-0.10252402
86	0xbd82a86d	-0.06379781
87	0xbe0b9680	-0.1363163
88	0xbc96e540	-0.018419862
89	0xbdb88113	-0.09008994
90	0x3d694f48	0.056960374
91	0xbb6bf8c0	-0.003600642
92	0xbdcbce3a	-0.09951444
93	0x3e34e9b5	0.17667277
94	0x3d6d8df8	0.05799672
95	0x3db3202e	0.08746372
96	0xbe0f1bf4	-0.13975507
97	0xbdfe3100	-0.1241169
98	0xbd8be013	-0.06829848
99	0xbdcca8e8	-0.09993154
100	0xbe0cb3d1	-0.1374047
101	0xba2500ef	-0.00062943896
102	0x3d947c03	0.07250216
103	0x3d0db58e	0.034596972
104	0x3c429993	0.011877435
105	0xbe3fc56e	-0.18727657
106	0x3d440a8b	0.047861617
107	0xbd2586e5	-0.04041185
108	0xbe17ec0b	-0.14836137
109	0x3d738a36	0.05945798
110	0x3e0ef9c8	0.13962471
111	0xbde0ff4d	-0.10986195
112	0xbbe65ebc	-0.007030336
113	0xbd96af32	-0.073576346
114	0xbd03c959	-0.032174442
115	0x3e0aa548	0.13539612
116	0x3cfea9d9	0.031086849
117	0xbd262cfc	-0.040570244
118	0x3dd81221	0.10550333
119	0xbd35e269	-0.044405375
120	0x3d09cf9c	0.033645257
121	0xbe20f6b9	-0.15719117
122	0xbe25fb0a	-0.16209045
123	0xbd26741e	-0.04063808
124	0x3dbf1dc9	0.09331853
125	0xbddc9f6c	-0.10772595
126	0xbdbcbf23	-0.09216144
127	0xbd933b96	-0.071890995
128	0xbd90ab70	-0.07063949
129	0x3e11a413	0.14222746
130	0xbd6e983d	-0.058250654
131	0x3e09b917	0.13449512
132	0xbd944e87	-0.072415404
133	0x3e0149e1	0.12625839
134	0xbd89254f	-0.06696569
135	0xbd1e34a7	-0.038624432
136	0x3e03b68c	0.12862605
137	0x3de80809	0.113296576
138	0xbca4abb7	-0.020101411
139	0x3d7c9169	0.06166211
140	0xbda3c193	-0.07995906
141	0xbc8280ef	-0.015930621
142	0xbdd0ce83	-0.10195639
143	0xbddd0e78	-0.10793775
144	0x3ddd90d9	0.10818643
145	0xbe4967cd	-0.19668503
146	0xbd8926cc	-0.06696853
147	0xbd87d423	-0.06632259
148	0x3cd37bd4	0.025815882
149	0x3dbb1daf	0.09136521
150	0xbd4fa352	-0.050692864
151	0xbe499ab9	-0.19687928
152	0x3d800635	0.06251184
153	0x3ca25356	0.019815128
154	0x3dc61cbe	0.09673451
155	0x3d6cf1db	0.05784784
156	0x3da7950a	0.08182724
157	0x3d0123bf	0.03152823
158	0x3e1c24e4	0.15248448
159	0x3de70395	0.1127998
160	0xbc5d0bbc	-0.013491567
161	0x3de5be03	0.112178825
162	0x3e0516a4	0.12996918
163	0x3da6645a	0.08124609
164	0xbdd51abd	-0.104054905
165	0xbd58a6a2	-0.05289329
166	0xbde676ca	-0.11253126
167	0x3c4cb9ff	0.012495517
168	0xbde43bb4	-0.111442
169	0x3dada4fe	0.084787354
170	0x3d823bb5	0.063590445
171	0x3d47329d	0.048632253
172	0xbda97451	-0.08274139
173	0x3df31991	0.11870111
174	0x3e02b4dc	0.12764305
175	0x3c9b05a3	0.018923586
176	0xbdbc474e	-0.09193288
177	0xbdc6c55b	-0.09705611
178	0x3d328f84	0.0435939
179	0xbdc7ac06	-0.09749608
180	0x3c3de227	0.011589563
181	0xbca61cf3	-0.020277476
182	0x3d865889	0.065598555
183	0xbd6e527e	-0.05818414
184	0x3de3b45f	0.111183874
185	0x3e041afa	0.12900916
186	0xbe291322	-0.16511205
187	0xbe358cc5	-0.1772948
188	0x3e0ba814	0.13638335
189	0xbe3a0b13	-0.18168287
190	0x3c7993c2	0.015232982
191	0xbddd4abf	-0.10805272
192	0x3e2f3a2d	0.17112036
193	0xbe29e361	-0.16590644
194	0xbe16fa4c	-0.14743918
195	0xbbba5fca	-0.0056876885
196	0xbd8bab87	-0.068198256
197	0xbd4aaf2d	-0.049483467
198	0x3d19e213	0.037569117
199	0x3d830094	0.06396595
200	0x3cfbba21	0.030728402
201	0xbd19260c	-0.0373898
202	0xba068f40	-0.000513304
203	0xbdc0d9dd	-0.09416554
204	0xbdfe2b66	-0.12410621
205	0xbde9704a	-0.113983706
206	0x3cf5d53e	0.030008908
207	0x3c313c2e	0.010817571
208	0x3e0a1f93	0.13488607
209	0x3e1f6433	0.15565567
210	0xbde6e66f	-0.112744205
211	0x3e0c4e44	0.13701731
212	0xbbfb7da1	-0.0076748882
213	0x3c2b3050	0.01044853
214	0xbd919f2c	-0.07110438
215	0x3b5329b9	0.0032220914
216	0x3e09383d	0.1340036
217	0xbe0a70d6	-0.13519606
218	0x3dca15bf	0.09867429
219	0xbc121884	-0.008916978
220	0xbcce82ab	-0.025208792
221	0xbcadd5d8	-0.021220133
222	0xbe11dc46	-0.14244184
223	0x3e2678f4	0.16257077
224	0xbdfe44c9	-0.124154635
225	0xbd6fced4	-0.058546856
226	0x3e25e563	0.16200785
227	0x3c77fcfa	0.015135998
228	0xbe18f833	-0.1493843
229	0x3d3ec5d2	0.046575375
230	0xbddd3781	-0.10801602
231	0xbca12f7b	-0.01967596
232	0xbde5c954	-0.11220041
233	0x3df55e75	0.11980907
234	0x3e28ae75	0.164728
235	0xbe1bfe1f	-0.15233658
236	0x3c1e116f	0.009647711
237	0xbd19d4c9	-0.037556443
238	0xbdb40c3c	-0.08791396
239	0x3e1d0954	0.1533559
240	0xbd39abda	-0.045329906
241	0x398d31ea	0.00026930805
242	0xbd1ae77c	-0.037818417
243	0xbe097f9c	-0.13427585
244	0xbc873b45	-0.016507754
245	0xbe3c9edb	-0.18419974
246	0xbcb53135	-0.02211819
247	0xbdb496c5	-0.088178195
248	0xbda59da5	-0.08086709
249	0xbe0d0396	-0.13770899
250	0x3dae0c0b	0.08498391
251	0x3c9de41b	0.019273808
252	0x3cd09bbc	0.025464885
253	0xbe164455	-0.14674504
254	0xbe08166c	-0.13289803
255	0xb8941bd1	-7.062371e-05

StatefulPartitionedCall/model/PP1/conv1d/ExpandDims_1:0 f4 [32, 1, 1, 3]
0	0xbe1b59bf	-0.15170954
1	0xbd699a0f	-0.057031687
2	0xbe877dd3	-0.26463184
3	0x3e91c56e	0.2847094
4	0x3e24c423	0.16090445
5	0xbda10ea0	-0.078641176
6	0xbe1dd8b5	-0.15414698
7	0xbe8cc5db	-0.27494702
8	0xbdc79cf4	-0.09746733
9	0x3d2c4dd8	0.042066425
10	0xbe1e77d3	-0.15475397
11	0xbe04833a	-0.12940684
12	0x3cae240d	0.021257425
13	0x3e4b4612	0.19850948
14	0x3e32297a	0.17398635
15	0x3e490115	0.19629319
16	0x3d9fda80	0.078053474
17	0x3e77a357	0.24183403
18	0xbe8ec9d2	-0.27888352
19	0xbe4af4eb	-0.19819991
20	0x3e0b2a01	0.13590242
21	0xbdf1dc16	-0.11809556
22	0xbe7f9da9	-0.24962486
23	0xbd7df202	-0.061998375
24	0x3e0b389e	0.13595816
25	0xbe6b9dd3	-0.23009424
26	0xbe66dc68	-0.22545016
27	0x3d18a707	0.037268665
28	0xbd3ced18	-0.046124548
29	0x3af4a9de	0.0018666347
30	0xbe87a55b	-0.26493344
31	0xbe2801f5	-0.16406997
32	0xbe2dd898	-0.16977155
33	0xbe84e493	-0.25955638
34	0xbe714205	-0.2356034
35	0xbe05765a	-0.13033429
36	0x3dd782f2	0.10523023
37	0x3e445939	0.1917466
38	0x3e3d3c9c	0.18480152
39	0xbe928b3f	-0.2862186
40	0xbda06d0f	-0.07833301
41	0xbdd0a1c6	-0.10187106
42	0x3df6bb53	0.12047448
43	0x3e8835e0	0.26603603
44	0xbccf286f	-0.025287835
45	0xbe5523ba	-0.2081441
46	0x3e37d388	0.17951787
47	0xbe8e0ddd	-0.27744952
48	0x3e1836cd	0.14864655
49	0xbd914931	-0.07094038
50	0x3e7a5f73	0.24450473
51	0x3e2e7a70	0.17038894
52	0x3ddb6f0d	0.10714541
53	0x3e312fef	0.17303441
54	0xbe5dffd2	-0.21679619
55	0xbd24a7b9	-0.040199015
56	0xbe759f3a	-0.23986521
57	0xbe57e373	-0.21082859
58	0x3d3ab2be	0.045580618
59	0x3dc99f9a	0.09844895
60	0x3e25bcc9	0.16185297
61	0x3e897605	0.26847854
62	0x3e6a8c5f	0.2290511
63	0xbe3a954a	-0.18221012
64	0xbe58f15b	-0.2118582
65	0xbdc56bd7	-0.096397094
66	0xbe21f47f	-0.15815924
67	0xbe0cd82e	-0.13754341
68	0xbe4e92b6	-0.20173153
69	0x3e91543c	0.28384578
70	0x3d2da2e2	0.042391665
71	0xbd833cac	-0.064080566
72	0x3e21f393	0.15815572
73	0x3e35d979	0.1775874
74	0xbe278b4b	-0.1636173
75	0xbe585a45	-0.21128185
76	0xbe72cd2e	-0.23711082
77	0xbc907041	-0.017631652
78	0x3d7fcaae	0.06244915
79	0xbeaca5d2	-0.3372026
80	0x3d5f396f	0.054498132
81	0xbe44de31	-0.19225384
82	0x3e126d8d	0.14299603
83	0xbdbe0566	-0.092783734
84	0xbe9ed412	-0.31021172
85	0x3d52c6d9	0.051459167
86	0xbea30989	-0.31843212
87	0x3cd43131	0.025902363
88	0xbdbefa64	-0.09325102
89	0xbe12b900	-0.14328384
90	0xbea0af44	-0.31383717
91	0xbe8bf93f	-0.27338597
92	0xbd6a2548	-0.05716446
93	0xbd821925	-0.06352452
94	0x3cb36344	0.02189792
95	0xbe620d0c	-0.2207529
